checkpoint_mCritic.pth (torch_old, 143174 bytes, 5 tensors)

fc1.weight f4 [64, 26]
0	0x39bdba3f	0.00036187653
1	0x38119a45	3.471437e-05
2	0xb7bab5f7	-2.2257662e-05
3	0x389da6f8	7.517444e-05
4	0x38a988cc	8.0840284e-05
5	0xb94b87fb	-0.00019410245
6	0xb7bab5f7	-2.2257662e-05
7	0x389da6f8	7.517444e-05
8	0x39e9d44f	0.00044599405
9	0x37ca2244	2.4096233e-05
10	0xb9063a9a	-0.00012801067
11	0x379f95bb	1.9024e-05
12	0x38257605	3.944898e-05
13	0xb940ab52	-0.00018374369
14	0xb9063a9a	-0.00012801067
15	0x379f95bb	1.9024e-05
16	0x39fd6ae7	0.0004833557
17	0x3689b443	4.1039034e-06
18	0xb8905ff0	-6.884325e-05
19	0xb890946d	-6.8941015e-05
20	0x3758897c	1.2906614e-05
21	0xb931107b	-0.00016886175
22	0xb8905ff0	-6.884325e-05
23	0xb890946d	-6.8941015e-05
24	0xb697fbb6	-4.5294537e-06
25	0xb6dc14b3	-6.5589206e-06
26	0x384eecf6	4.9334914e-05
27	0xb607a6a8	-2.0213574e-06
28	0xb7a8ddbc	-2.0130414e-05
29	0x37fbd227	3.0019391e-05
30	0xb7cc9730	-2.4389097e-05
31	0xb84afa8b	-4.839389e-05
32	0xb7a8ddbc	-2.0130414e-05
33	0x37fbd227	3.0019391e-05
34	0x3836e796	4.3607863e-05
35	0x34ac17c3	3.2054785e-07
36	0xb6f085d1	-7.1681357e-06
37	0x37852106	1.5870213e-05
38	0xb7e1f177	-2.6934531e-05
39	0xb84e4289	-4.9176193e-05
40	0xb6f085d1	-7.1681357e-06
41	0x37852106	1.5870213e-05
42	0x382a0bb0	4.0542043e-05
43	0x3652bf3a	3.1403747e-06
44	0xb7b5c4ca	-2.1668518e-05
45	0x36db9f0b	6.5452236e-06
46	0xb7d1f61c	-2.5029345e-05
47	0xb8682b3b	-5.5353372e-05
48	0xb7b5c4ca	-2.1668518e-05
49	0x36db9f0b	6.5452236e-06
50	0xb80ad74e	-3.3102282e-05
51	0xb819f287	-3.6703914e-05
52	0x3bf1a817	0.007374774
53	0x3d9c3042	0.07626392
54	0xb941b86f	-0.00018474621
55	0x3bfb0df7	0.007661577
56	0x3d1e8547	0.038701322
57	0x3c92d39d	0.01792317
58	0xb941b86f	-0.00018474621
59	0x3bfb0df7	0.007661577
60	0xbc10b70d	-0.008832705
61	0x3da01bde	0.07817815
62	0x3a19224c	0.00058415974
63	0x3ba81a16	0.005130063
64	0xbd1090d7	-0.03529438
65	0xbd1bfff8	-0.038085908
66	0x3a19224c	0.00058415974
67	0x3ba81a16	0.005130063
68	0xbd2fa754	-0.042884186
69	0x3d85f387	0.0654059
70	0x39052c6a	0.00012700414
71	0x3c2c5803	0.0105190305
72	0x3d34d6b5	0.044150073
73	0xbeabd7d5	-0.33563104
74	0x39052c6a	0.00012700414
75	0x3c2c5803	0.0105190305
76	0xbc05b11f	-0.008159905
77	0x3ce8fe33	0.028441524
78	0x3aa2062f	0.0012361462
79	0xb8553e24	-5.084103e-05
80	0xb9b98207	-0.00035382828
81	0x39413781	0.00018426591
82	0x378fb10d	1.7129374e-05
83	0xb9bf272e	-0.0003645955
84	0xb9b98207	-0.00035382828
85	0x39413781	0.00018426591
86	0x3acd92fd	0.0015684065
87	0xb8094a39	-3.273247e-05
88	0xb97c6518	-0.00024070253
89	0xb7aa24e9	-2.0282767e-05
90	0x378b80d0	1.6630074e-05
91	0xb9b995c3	-0.0003539753
92	0xb97c6518	-0.00024070253
93	0xb7aa24e9	-2.0282767e-05
94	0x3ad151c9	0.0015969808
95	0xb7e0070e	-2.6706166e-05
96	0x39b8ba3d	0.00035233973
97	0x3806f449	3.2175598e-05
98	0xb80063ce	-3.061053e-05
99	0xb9ab9b91	-0.00032731568
100	0x39b8ba3d	0.00035233973
101	0x3806f449	3.2175598e-05
102	0x38b3e23d	8.577525e-05
103	0xb8c28ca8	-9.27684e-05
104	0x3c9d609d	0.019211108
105	0x3ba25c9f	0.004954889
106	0x3af935ff	0.0019013284
107	0x3b8b03fa	0.0042424174
108	0xbbaa560a	-0.005198245
109	0xbc83da17	-0.016095204
110	0x3af935ff	0.0019013284
111	0x3b8b03fa	0.0042424174
112	0x3c93fef0	0.0180659
113	0x3babab88	0.005238954
114	0xbba3c639	-0.004997995
115	0x3b519991	0.0031982402
116	0xbb9b7802	-0.0047445307
117	0xbc81d6b4	-0.015849449
118	0xbba3c639	-0.004997995
119	0x3b519991	0.0031982402
120	0x3c991586	0.018687021
121	0x3bb3c013	0.0054855435
122	0xbb10583a	-0.0022025243
123	0x3b937651	0.0045001884
124	0xbbc24c85	-0.005929532
125	0xbc8dcb0e	-0.017308738
126	0xbb10583a	-0.0022025243
127	0x3b937651	0.0045001884
128	0xbb93b70a	-0.004507904
129	0xb7cb284f	-2.4218256e-05
130	0x3c782135	0.015144636
131	0x3c03f8d5	0.008054932
132	0x3917c5ce	0.0001447417
133	0xbaf0580e	-0.0018336789
134	0x3d3fad00	0.046795845
135	0xbd1bfa0b	-0.038080256
136	0x3917c5ce	0.0001447417
137	0xbaf0580e	-0.0018336789
138	0x3d8f732d	0.0700439
139	0x3c8482ca	0.016175646
140	0x3ac8d52e	0.0015322322
141	0xba9260f1	-0.0011167807
142	0x3d4e83bb	0.050418597
143	0xbbf8ddc0	-0.007594794
144	0x3ac8d52e	0.0015322322
145	0xba9260f1	-0.0011167807
146	0x3dd217bb	0.102584325
147	0x3a95e964	0.0011437354
148	0x3b956fff	0.00456047
149	0xba0fe13b	-0.0005488579
150	0xbe9b85bb	-0.30375466
151	0x3cb897f1	0.022533389
152	0x3b956fff	0.00456047
153	0xba0fe13b	-0.0005488579
154	0x3c4d6548	0.012536354
155	0xbc63b01c	-0.013896968
156	0x3cf338f2	0.02969024
157	0x3be7c775	0.0070733377
158	0xbb5d8348	-0.0033800174
159	0x3cb2ba7c	0.021817438
160	0x3c0659d6	0.0082001295
161	0xbd27ceed	-0.040968824
162	0xbb5d8348	-0.0033800174
163	0x3cb2ba7c	0.021817438
164	0x3c7d6c61	0.015467734
165	0x3b312cf0	0.0027034841
166	0x3a6e5e65	0.00090930454
167	0x3c8974c6	0.016779315
168	0xbd002118	-0.03128156
169	0xbb39f7bf	-0.0028376428
170	0x3a6e5e65	0.00090930454
171	0x3c8974c6	0.016779315
172	0x3d0136ce	0.031546406
173	0x3afcad5e	0.0019277742
174	0x3bcd2206	0.0062601594
175	0xbd4495e8	-0.047994524
176	0xbcba04b6	-0.022707324
177	0x3cc650ec	0.024208508
178	0x3bcd2206	0.0062601594
179	0xbd4495e8	-0.047994524
180	0x3aea93bb	0.001789681
181	0xbc741967	-0.0148986345
182	0x39b521ce	0.00034548197
183	0x3808bad0	3.259891e-05
184	0xb9b496c6	-0.0003444461
185	0xb90bc872	-0.00013330745
186	0x39888bbc	0.00026044052
187	0xba102e83	-0.0005500095
188	0xb9b496c6	-0.0003444461
189	0xb90bc872	-0.00013330745
190	0x39eefda9	0.0004558389
191	0x385fcd27	5.3358406e-05
192	0x36a37f6d	4.872613e-06
193	0x3687c1bd	4.0458676e-06
194	0x3991d7ad	0.00027817246
195	0xba086234	-0.00052026217
196	0x36a37f6d	4.872613e-06
197	0x3687c1bd	4.0458676e-06
198	0x3a10cfe0	0.000552414
199	0x38bf77cc	9.1299036e-05
200	0xb8722103	-5.772804e-05
201	0x3974d12b	0.00023347574
202	0x39a22c18	0.000309319
203	0xb9f7568d	-0.00047175997
204	0xb8722103	-5.772804e-05
205	0x3974d12b	0.00023347574
206	0x382260ef	3.8714086e-05
207	0x38622fb4	5.3927026e-05
208	0x3aca34b4	0.0015427084
209	0x382bb136	4.0934618e-05
210	0x399ff360	0.00030508172
211	0xb8fd6b12	-0.000120839235
212	0x39ecd19e	0.00045169605
213	0xba333987	-0.00068368803
214	0x399ff360	0.00030508172
215	0xb8fd6b12	-0.000120839235
216	0x3b0e2896	0.0021691672
217	0x37cebb82	2.4644429e-05
218	0xb984287a	-0.0002520716
219	0xb8c46ae1	-9.365916e-05
220	0x39e96cf0	0.00044522388
221	0xba10ab85	-0.00055187225
222	0xb984287a	-0.0002520716
223	0xb8c46ae1	-9.365916e-05
224	0x3b3fc8cf	0.0029263978
225	0x3741c427	1.1549367e-05
226	0x39e7edea	0.00044237013
227	0xb8a76d59	-7.983548e-05
228	0x39b6f66e	0.0003489735
229	0xb9d8f518	-0.0004138134
230	0x39e7edea	0.00044237013
231	0xb8a76d59	-7.983548e-05
232	0x39a2b910	0.0003103693
233	0xb92e57d9	-0.00016626659
234	0x3a60e84e	0.0008579538
235	0x3997fa60	0.00028987508
236	0x3949b20f	0.00019235186
237	0xb78b4386	-1.6601534e-05
238	0x3924ddb4	0.0001572285
239	0xba24c916	-0.00062860677
240	0x3949b20f	0.00019235186
241	0xb78b4386	-1.6601534e-05
242	0x3a6f22d8	0.00091223186
243	0x399ce984	0.0002992862
244	0xb9f1cf53	-0.0004612157
245	0xb92c4d00	-0.00016431883
246	0x394589ec	0.00018838764
247	0xba50872c	-0.00079547125
248	0xb9f1cf53	-0.0004612157
249	0xb92c4d00	-0.00016431883
250	0x3a8cf18a	0.0010753137
251	0x39aec192	0.00033332087
252	0xb8c10a2e	-9.204853e-05
253	0xb9af54ad	-0.0003344169
254	0x3940e4f3	0.00018395837
255	0xba8c2457	-0.0010691982

fc1.bias f4 [64]
0	0x36922859	4.355836e-06
1	0xb7a9fba9	-2.0263558e-05
2	0x3ccf81da	0.025330473
3	0x386ad0c0	5.598436e-05
4	0xbc11af58	-0.008891903
5	0xbd0b3783	-0.033988487
6	0xbb879299	-0.004137349
7	0xb82add71	-4.0737392e-05
8	0xb8ee51b3	-0.00011363942
9	0xb95bbbc6	-0.00020955419
10	0xb98521be	-0.00025392877
11	0xba26b970	-0.000636003
12	0xb8904af7	-6.8804184e-05
13	0xbc4e7658	-0.012601458
14	0xbb8d760d	-0.0043170513
15	0x396ffc70	0.00022886856
16	0xb93cb728	-0.00017997308
17	0xbbd7b374	-0.006582672
18	0xbd00df3f	-0.031462904
19	0xb9975a3e	-0.000288682
20	0xbbb9101b	-0.005647672
21	0xbbab816e	-0.005233935
22	0x38d70a1c	0.00010253882
23	0xba0fa4fc	-0.00054796017
24	0xb9e8d9ce	-0.00044412765
25	0x3a3428df	0.00068725453
26	0xbb35889d	-0.0027699836
27	0xbc875dde	-0.016524252
28	0x3d54213b	0.051789504
29	0x39b4e49e	0.00034502608
30	0xbc44a015	-0.012001057
31	0x3cfeb409	0.031091707
32	0xbcaed97f	-0.021343945
33	0x38d5f72d	0.000102026715
34	0x3d8fb779	0.070174165
35	0xba19f6d9	-0.000587327
36	0xbc686f3d	-0.0141866775
37	0xbab2f1c5	-0.0013652375
38	0x37a1e42d	1.9298948e-05
39	0xb9124ed1	-0.00013953006
40	0xbb6ef283	-0.0036460466
41	0xbada4e11	-0.0016655346
42	0xb7de1e32	-2.6478523e-05
43	0xbb927154	-0.004469076
44	0xb96a78bb	-0.00022360955
45	0x394c28f9	0.0001947022
46	0x39dd1a68	0.0004217208
47	0xbca79dcb	-0.020460984
48	0x35fe3195	1.8938905e-06
49	0xbbf649af	-0.007516108
50	0xbaa6145d	-0.0012670864
51	0x3846a1da	4.7357615e-05
52	0x3a942766	0.0011303246
53	0xb8b7ae52	-8.75859e-05
54	0xb8cb9643	-9.707783e-05
55	0xbc015c7d	-0.007895586
56	0x3c101c31	0.008795784
57	0x36c62140	5.9047306e-06
58	0x3d0eb6c8	0.034842283
59	0xbaee3fdf	-0.0018176994
60	0x3905ebb8	0.0001277168
61	0xb75a4d5e	-1.3011826e-05
62	0xbbeb4cf6	-0.0071808053
63	0x3a626fdf	0.0008637886

fc2.weight f4 [512, 64]
0	0x2c638f76	3.2338277e-12
1	0xac8d3564	-4.0133886e-12
2	0x2faa8c20	3.1022385e-10
3	0x2d08c79f	7.77503e-12
4	0xafa01808	-2.9120906e-10
5	0x315b8cec	3.19488e-09
6	0x306f79e8	8.712093e-10
7	0x2e3ff4d7	4.3645833e-11
8	0xad80c03a	-1.4637281e-11
9	0x2f98e006	2.7807817e-10
10	0xadfffb1b	-2.9101657e-11
11	0x2fd671ce	3.9007236e-10
12	0x2e065d98	3.05512e-11
13	0x31330021	2.6048002e-09
14	0x304764bd	7.2538936e-10
15	0x2fd6ed0d	3.9094808e-10
16	0x2e6af02e	5.3418762e-11
17	0xb19a9b9b	-4.49968e-09
18	0x310670f7	1.956378e-09
19	0xb115868f	-2.1758841e-09
20	0x2fe0e981	4.0911277e-10
21	0xb0a5aca3	-1.2054396e-09
22	0x2ea840cc	7.651266e-11
23	0x2d8cf21a	1.6023672e-11
24	0x30a88029	1.2260034e-09
25	0xb0fddf96	-1.847172e-09
26	0x30b43060	1.3110473e-09
27	0xb186b008	-3.9199257e-09
28	0xafa72b7d	-3.0408023e-10
29	0x2f75f15f	2.2368372e-10
30	0x3124c5a8	2.3977496e-09
31	0x3115adc4	2.1781128e-09
32	0xb119afd8	-2.2364386e-09
33	0x2e0c941f	3.1963873e-11
34	0xb113e364	-2.1520572e-09
35	0x3011c364	5.302836e-10
36	0xafcf1c21	-3.7673067e-10
37	0x3085b085	9.727193e-10
38	0xb0816f9a	-9.417704e-10
39	0x2d313597	1.00731845e-11
40	0xb0970c57	-1.0990203e-09
41	0x2e83f1cc	6.000142e-11
42	0xa82de205	-9.652439e-15
43	0x30876e94	9.853971e-10
44	0x2eef086d	1.08699584e-10
45	0x2f8f1517	2.6026534e-10
46	0xaf3d074d	-1.7192044e-10
47	0xb0b97182	-1.3492782e-09
48	0x2b02f3e8	4.6523766e-13
49	0x30efe5dd	1.745487e-09
50	0x30f174fd	1.7568308e-09
51	0xaa4416d4	-1.7416217e-13
52	0xae3bb209	-4.2677004e-11
53	0xac7b4b22	-3.5710952e-12
54	0x2bc8ce25	1.4268071e-12
55	0x30cb3d7d	1.478767e-09
56	0xb182c2d2	-3.8056465e-09
57	0x2b2976cb	6.020572e-13
58	0x2f4b8b68	1.851227e-10
59	0x303b8e66	6.8232564e-10
60	0xaee9b769	-1.06281935e-10
61	0x2d607d29	1.2760717e-11
62	0x31d9801d	6.330096e-09
63	0xb037d9dd	-6.6884615e-10
64	0x24f4ee88	1.0622222e-16
65	0xa54782c4	-1.7304804e-16
66	0xa9850c7a	-5.908551e-14
67	0xa6639392	-7.895644e-16
68	0x260cffc1	4.891887e-16
69	0x2706c6bf	1.8703976e-15
70	0x28744fa6	1.3561992e-14
71	0x26937aaf	1.0233427e-15
72	0xa6b79c56	-1.2740551e-15
73	0x275a0df6	3.0261146e-15
74	0xa7b9116b	-5.13667e-15
75	0x2868cb72	1.2922702e-14
76	0xa6f94b28	-1.7298217e-15
77	0x27ad55a2	4.810999e-15
78	0x28d1a070	2.327324e-14
79	0x2802b44a	7.255544e-15
80	0x26c2af56	1.3508979e-15
81	0x29a41f37	7.288478e-14
82	0x28a5ad13	1.8393739e-14
83	0x2a6f4ced	2.1254153e-13
84	0x2993fb57	6.571712e-14
85	0x29c0d8b8	8.5641075e-14
86	0x27164064	2.0851588e-15
87	0xa7b4bca5	-5.0164565e-15
88	0xa73ceeb9	-2.6219653e-15
89	0xa87596fb	-1.3632971e-14
90	0xa980100e	-5.687127e-14
91	0x29633c82	5.0456607e-14
92	0xaadf643f	-3.9682317e-13
93	0xa69a813d	-1.0720927e-15
94	0xa9b8aa78	-8.200813e-14
95	0xa8ba67ce	-2.0695166e-14
96	0xab666b76	-8.1861547e-13
97	0x27dfb284	6.208848e-15
98	0xa9ab791c	-7.6149346e-14
99	0x2777a6ab	3.4368487e-15
100	0x29e01211	9.950732e-14
101	0x28c1a44a	2.1498553e-14
102	0x2a0d4f4a	1.2550825e-13
103	0x2762a00b	3.145056e-15
104	0xa8981779	-1.688557e-14
105	0xa8147af2	-8.24231e-15
106	0x259577da	2.5928594e-16
107	0x26882894	9.447894e-16
108	0xa6e6d89a	-1.6018166e-15
109	0xa83a4eb0	-1.0342137e-14
110	0xa89d389a	-1.7455049e-14
111	0xa7be3ce7	-5.2801624e-15
112	0xa357de5b	-1.1702259e-17
113	0xaa4794ce	-1.7726378e-13
114	0xa7c10075	-5.3568756e-15
115	0x27317c58	2.4631091e-15
116	0xa8203fb3	-8.895597e-15
117	0xa4799add	-5.4124442e-17
118	0xa7af031e	-4.8575637e-15
119	0x28d57f50	2.3702963e-14
120	0xa9a13b96	-7.160173e-14
121	0x24d70c2b	9.3262e-17
122	0x2900ee5d	2.8628457e-14
123	0x2850698b	1.15692054e-14
124	0x28004bc8	7.12186e-15
125	0x25725ec1	2.1022258e-16
126	0x25e17cb3	3.9115778e-16
127	0x2972de7b	5.3927765e-14
128	0xb6ba8f3f	-5.559908e-06
129	0xb6063114	-1.9996123e-06
130	0x39b6f4a5	0.0003489602
131	0x34a4b0d7	3.0676048e-07
132	0xb7990c87	-1.8244855e-05
133	0xba263c1b	-0.0006341354
134	0x39a0c389	0.00030663263
135	0x35c7d917	1.4889837e-06
136	0x35b957eb	1.3809162e-06
137	0x3680d16f	3.8390785e-06
138	0xb6f701d2	-7.3613855e-06
139	0xb89021a2	-6.87272e-05
140	0x360bf71a	2.0856446e-06
141	0xba311be4	-0.000675617
142	0x39984bf3	0.00029048286
143	0x386dbf73	5.6683504e-05
144	0xb77809bc	-1.4784218e-05
145	0xb8f37adb	-0.000116100266
146	0x39042324	0.00012601592
147	0xb7832bb2	-1.5636764e-05
148	0xb85ad242	-5.2171068e-05
149	0x399721d3	0.00028826165
150	0x37419b33	1.1539832e-05
151	0xb734a108	-1.0766329e-05
152	0xb8693f6b	-5.561059e-05
153	0xb794d8f8	-1.7744009e-05
154	0x3971563c	0.00023015676
155	0xb8da20af	-0.00010401138
156	0xba246911	-0.00062717596
157	0x372abeee	1.0177244e-05
158	0x39b8c1a6	0.00035239494
159	0x390c1ed2	0.00013362922
160	0xba4c5264	-0.00077942596
161	0xb8446549	-4.682437e-05
162	0x3a322526	0.00067956967
163	0xb231a355	-1.0339893e-08
164	0xb82e3c5e	-4.1541054e-05
165	0xb908307e	-0.00012988035
166	0xb682509f	-3.8836874e-06
167	0x371a547e	9.198788e-06
168	0xb902fca6	-0.00012491885
169	0x37907169	1.7218948e-05
170	0xb0b013a5	-1.2811269e-09
171	0x38a3ae8e	7.804959e-05
172	0x3809fa79	3.2896616e-05
173	0xb7d42986	-2.5291705e-05
174	0x383cf580	4.5051333e-05
175	0x383b8def	4.471646e-05
176	0x33a11679	7.5012345e-08
177	0xba65423d	-0.0008745527
178	0xb5769cba	-9.187021e-07
179	0xb38c0c99	-6.5215495e-08
180	0xb80b0ff7	-3.315505e-05
181	0xb7411c53	-1.1510291e-05
182	0xb59dc45d	-1.1754561e-06
183	0x395fe73d	0.0002135308
184	0xb96c6aa7	-0.00022546445
185	0xb5b3eed5	-1.3406049e-06
186	0xb9b09e3b	-0.00033687227
187	0xb8623167	-5.392861e-05
188	0xb4ea637e	-4.3658287e-07
189	0x3600a047	1.916678e-06
190	0x38ab48ff	8.167512e-05
191	0xb9e972ed	-0.0004452685
192	0xacf18c12	-6.865183e-12
193	0xab875aea	-9.617561e-13
194	0xafb477b4	-3.2826863e-10
195	0x2e29eec8	3.863823e-11
196	0x2ecc0c98	9.279083e-11
197	0x3010de64	5.270293e-10
198	0xaef6c750	-1.122219e-10
199	0xae84bb61	-6.03595e-11
200	0xadff5e27	-2.9031956e-11
201	0x2e96e372	6.861613e-11
202	0xada1d0a3	-1.8396234e-11
203	0xadf9fcce	-2.842029e-11
204	0xac9a9a2d	-4.39406e-12
205	0xaffa2a6a	-4.5504872e-10
206	0x2dffdf49	2.9089302e-11
207	0xab5acea9	-7.7735957e-13
208	0x2d956c10	1.6987328e-11
209	0x2f896650	2.4992852e-10
210	0x2eeae4dd	1.0681742e-10
211	0x2e612e88	5.1200405e-11
212	0x2eb0f964	8.047854e-11
213	0x2dd4b16b	2.4180399e-11
214	0xab4d0079	-7.2831286e-13
215	0x2d470cc6	1.1314677e-11
216	0x2cb8f250	5.2564966e-12
217	0xac8ab6a1	-3.9424718e-12
218	0x2cd2cec9	5.9915167e-12
219	0x2fb9cbe6	3.3796183e-10
220	0xb02343ab	-5.9395217e-10
221	0x2d00ee62	7.328889e-12
222	0xad8668e1	-1.5280612e-11
223	0xae4a7aa4	-4.603841e-11
224	0xb8956c6e	-7.12507e-05
225	0x2dc06aea	2.1875352e-11
226	0x2f2f0604	1.5918294e-10
227	0xac998ac2	-4.3639268e-12
228	0x2dc95b89	2.2891704e-11
229	0x2e7327e2	5.5287226e-11
230	0x2d048b6f	7.534292e-12
231	0x2c4ea19a	2.9364068e-12
232	0x2c56c3de	3.0519957e-12
233	0x2b08ebcd	4.8644145e-13
234	0xaf032c16	-1.1930043e-10
235	0x2d52142f	1.19416e-11
236	0x2e9dceb8	7.176254e-11
237	0x2c65beab	3.26487e-12
238	0xabf2b4cf	-1.7245319e-12
239	0x2d3d795f	1.0770356e-11
240	0x2bb9edaa	1.3211006e-12
241	0xb562d7ce	-8.45056e-07
242	0xad87e39a	-1.5448798e-11
243	0xae02db3f	-2.9753307e-11
244	0x2c688302	3.3041907e-12
245	0x2e308f06	4.0144797e-11
246	0xac8f82dc	-4.0788328e-12
247	0x2cc209d1	5.5149015e-12
248	0xae3e45a0	-4.3262838e-11
249	0xacda18c5	-6.1986826e-12
250	0xaec5f5ce	-9.0021865e-11
251	0x2d56bb0f	1.2206027e-11
252	0x2d117923	8.2691935e-12
253	0xabf2b73c	-1.7245992e-12
254	0x2dce129f	2.3427758e-11
255	0xaf32cec1	-1.626246e-10

fc2.bias f4 [512]
0	0x2ddaa01d	2.4854835e-11
1	0xaac33244	-3.4673837e-13
2	0xba4cc8b8	-0.0007811892
3	0xb484bbdf	-2.472361e-07
4	0xab14ab9b	-5.2818313e-13
5	0xab8c2b4c	-9.959616e-13
6	0xb3bb30af	-8.7167216e-08
7	0xa4552aa0	-4.6223117e-17
8	0x240f9573	3.113477e-17
9	0xa6a7d0c8	-1.1644543e-15
10	0xb3d1a4d8	-9.762306e-08
11	0xb800214a	-3.054858e-05
12	0xb1a39c3c	-4.761686e-09
13	0xa10becb4	-4.7408306e-19
14	0x262d74e9	6.0179875e-16
15	0x2e1e7eed	3.6037773e-11
16	0xa5e20929	-3.9210958e-16
17	0xa4379d2e	-3.9814936e-17
18	0xad818d11	-1.4728248e-11
19	0xbc89c134	-0.01681576
20	0xac0c4cfc	-1.9937932e-12
21	0xacff8cc0	-7.2631623e-12
22	0xa90f51c9	-3.1823316e-14
23	0xb0a6ea8e	-1.2144754e-09
24	0x3a37ada4	0.00070067705
25	0xa2c5871e	-5.3540018e-18
26	0x301b777a	5.655846e-10
27	0xacbfe1a1	-5.4535963e-12
28	0xad95f39c	-1.7047523e-11
29	0xb0763148	-8.956431e-10
30	0xb17d1c1c	-3.6832324e-09
31	0xbb0f8c7f	-0.002190381
32	0xa3efacc9	-2.598561e-17
33	0x380c2f11	3.3422435e-05
34	0xb5bf6623	-1.4260335e-06
35	0x30456d51	7.182353e-10
36	0xb237daa8	-1.0701719e-08
37	0xb8bce3cd	-9.00697e-05
38	0xb98c996a	-0.00026817183
39	0xab1a1600	-5.474232e-13
40	0xa9f5cc37	-1.0915611e-13
41	0xa94ed3ce	-4.59249e-14
42	0xaedbe43f	-9.9995116e-11
43	0x374a09b3	1.20423965e-05
44	0xb89de5d2	-7.529151e-05
45	0xa8eddbf2	-2.6407672e-14
46	0xb90f887a	-0.00013688384
47	0x31e745c8	6.730918e-09
48	0xab3215a6	-6.3268347e-13
49	0xa0c2eafa	-3.3020373e-19
50	0xa6de68cc	-1.543275e-15
51	0xae9534e8	-6.7851336e-11
52	0xb1ff0e16	-7.423078e-09
53	0x9112013f	-1.1517753e-28
54	0xb9c803d5	-0.00038149828
55	0xa5016b0d	-1.1225237e-16
56	0xbbe9d5f9	-0.007136103
57	0xaa8998b6	-2.4442053e-13
58	0x3c04fb83	0.008116606
59	0xb58d7073	-1.0538046e-06
60	0xbb85dc0e	-0.0040850705
61	0x26604a20	7.781607e-16
62	0xb6bc0402	-5.603303e-06
63	0x375ea057	1.3269563e-05
64	0xb47b08d0	-2.3379403e-07
65	0xb4765d7e	-2.2944548e-07
66	0xb782a207	-1.5572658e-05
67	0xbc9d0cc9	-0.019171136
68	0xb2de7563	-2.5897583e-08
69	0xad9a11f8	-1.7515753e-11
70	0xb549f96c	-7.524129e-07
71	0xb41b0da4	-1.4440462e-07
72	0xb8310cf0	-4.2212137e-05
73	0xa770b9b0	-3.3407352e-15
74	0xadc44d14	-2.231685e-11
75	0xb6a3d4d8	-4.882557e-06
76	0x3db087e3	0.08619668
77	0xa64552b3	-6.8460183e-16
78	0xbc23ce71	-0.00999795
79	0xba8999db	-0.0010498123
80	0xae97c23d	-6.9011886e-11
81	0xb7d55005	-2.542884e-05
82	0xaf94f045	-2.7091765e-10
83	0xb8f1c9b3	-0.00011529345
84	0xa2cc88a3	-5.543898e-18
85	0xb0204b5a	-5.831474e-10
86	0xa8cef3d7	-2.2976343e-14
87	0xa7a533c5	-4.585283e-15
88	0xa9493625	-4.467793e-14
89	0xb6c0b61f	-5.7432476e-06
90	0x9e5ea633	-1.1786951e-20
91	0xa582d469	-2.269534e-16
92	0xa38a4535	-1.49913e-17
93	0x331bae35	3.624719e-08
94	0xb82d3301	-4.1293915e-05
95	0xae09f78a	-3.1370052e-11
96	0xa66240be	-7.8497243e-16
97	0xa83952e2	-1.0287535e-14
98	0xa713eef7	-2.0529891e-15
99	0xb39595a5	-6.9655734e-08
100	0x345c1016	2.0494949e-07
101	0xaffe5366	-4.626159e-10
102	0xbcd46ba1	-0.025930228
103	0xba0453ce	-0.0005047888
104	0xa4291752	-3.6665787e-17
105	0x3808c2b8	3.2606273e-05
106	0xb5dd6e69	-1.6497917e-06
107	0x33ce331e	9.601921e-08
108	0xa7cf0cb0	-5.7467797e-15
109	0xaeacf4ca	-7.865138e-11
110	0x240b0bfd	3.0150975e-17
111	0xb6aa0c11	-5.0677995e-06
112	0xa792c460	-4.073605e-15
113	0xb339da3c	-4.3272152e-08
114	0xb9bd82f0	-0.00036146445
115	0xb8cdbd21	-9.81039e-05
116	0x2bd0d896	1.4839404e-12
117	0xb92b0f1e	-0.00016313462
118	0x2ac43496	3.4853083e-13
119	0xad838b33	-1.4954793e-11
120	0xb5a4e804	-1.2286478e-06
121	0x2d0ac26b	7.887561e-12
122	0xa116f36c	-5.1144143e-19
123	0xb5a57b4a	-1.232934e-06
124	0x2a9eaf3b	2.8188029e-13
125	0xb712776c	-8.730083e-06
126	0xb5c9ecf4	-1.504463e-06
127	0xada49a92	-1.8713284e-11
128	0xb73460d9	-1.0751385e-05
129	0xa0b1fb50	-3.015127e-19
130	0xb07ad3b7	-9.1250335e-10
131	0x2ef314d5	1.1054061e-10
132	0xb7b02e00	-2.1002255e-05
133	0xbaad4496	-0.0013219293
134	0x34b4a72b	3.3649243e-07
135	0xb9479b9d	-0.0001903609
136	0xb69f8eab	-4.755178e-06
137	0xb78f6fda	-1.7099013e-05
138	0xaa982e21	-2.7032632e-13
139	0xafc38319	-3.5563444e-10
140	0xacf8951d	-7.065139e-12
141	0xa4f480b0	-1.0603614e-16
142	0x25bf1a87	3.3151194e-16
143	0xa23fa141	-2.5970694e-18
144	0xa42de4e1	-3.7707263e-17
145	0xb455a320	-1.9896515e-07
146	0x368ef21a	4.260114e-06
147	0xacd234e9	-5.974433e-12
148	0xa103ef00	-4.470084e-19
149	0xa573194a	-2.1085459e-16
150	0x3d7dbb7f	0.06194639
151	0xaf0c7412	-1.2774162e-10
152	0x9c630821	-7.5118506e-22
153	0xae8ffccb	-6.547792e-11
154	0xa8b7a9d4	-2.0390733e-14
155	0xad21bc3d	-9.193588e-12
156	0x90eba5df	-9.294672e-29
157	0x3708c7d0	8.152754e-06
158	0x3c0304b8	0.0079967305
159	0xb40173bc	-1.2056165e-07
160	0x9384d180	-3.3528068e-27
161	0xa8c86548	-2.2248384e-14
162	0x3875b384	5.857974e-05
163	0xb9a48576	-0.00031379954
164	0xa6eafa38	-1.6304834e-15
165	0xba00d52f	-0.00049145793
166	0xa8aa3e56	-1.8900825e-14
167	0xa1f3df96	-1.6525503e-18
168	0xb39ac44f	-7.206892e-08
169	0xba51c3d0	-0.00080018956
170	0xb4894394	-2.5567408e-07
171	0xb5a1eaa6	-1.2063726e-06
172	0xaf92b460	-2.668541e-10
173	0xab749b7a	-8.690198e-13
174	0xb5bcc1c3	-1.4063484e-06
175	0xae43e24a	-4.4538852e-11
176	0xb6cebcf3	-6.161275e-06
177	0xb6559463	-3.1825846e-06
178	0x1dd2f4d4	5.5839684e-21
179	0xafaa1943	-3.094077e-10
180	0xb9163a80	-0.00014326908
181	0x26d770a2	1.4949151e-15
182	0xa0536bb9	-1.7908038e-19
183	0xb29a7b95	-1.7984158e-08
184	0xaf1faf5e	-1.4523269e-10
185	0xbabc7fef	-0.0014381389
186	0xb5a0be17	-1.1976252e-06
187	0xb6a2fc16	-4.857323e-06
188	0xb3728e81	-5.6474622e-08
189	0xa058550e	-1.8324054e-19
190	0xb3b27482	-8.3099636e-08
191	0xb9555913	-0.00020346446
192	0x9a2b6f9d	-3.5452132e-23
193	0xb8712e19	-5.750181e-05
194	0xb423f99c	-1.5271365e-07
195	0xae89434b	-6.241992e-11
196	0xb2a20e1e	-1.8865702e-08
197	0xb296dbdf	-1.7562284e-08
198	0xb2be6822	-2.2166265e-08
199	0xa0ff9820	-4.3299348e-19
200	0xb9301c7e	-0.00016795282
201	0xb8174587	-3.6065958e-05
202	0xa0148614	-1.258045e-19
203	0xa15da625	-7.5097603e-19
204	0xb61e3617	-2.357532e-06
205	0xb79b8966	-1.8541421e-05
206	0xa20faec8	-1.9472642e-18
207	0xba62f51c	-0.000865774
208	0xa2368170	-2.4734123e-18
209	0xa7de62e4	-6.1724595e-15
210	0xb29d1259	-1.8285549e-08
211	0xb8919d7d	-6.943473e-05
212	0xadb35701	-2.0388581e-11
213	0x174cf2d8	6.6222467e-25
214	0x33bd4958	8.8143395e-08
215	0x8f8ad4f5	-1.3689879e-29
216	0xa245012e	-2.6699103e-18
217	0xbb8951da	-0.0041906657
218	0xaaa453ba	-2.919035e-13
219	0xb68167a4	-3.856565e-06
220	0xb9062de2	-0.00012796329
221	0xb87018b7	-5.7243476e-05
222	0xb52d07d7	-6.445893e-07
223	0xa08ac71d	-2.3509871e-19
224	0xb6081d5c	-2.0282669e-06
225	0xb0aa32a3	-1.238352e-09
226	0xb5a10b45	-1.1998715e-06
227	0xa65eb3cb	-7.7265387e-16
228	0xbbb13e5d	-0.0054090456
229	0xb09c8d05	-1.1390574e-09
230	0xb35b95c5	-5.1126126e-08
231	0xb605a296	-1.9913182e-06
232	0xb86ecd9b	-5.6935107e-05
233	0xb7e9abea	-2.7855818e-05
234	0xba502482	-0.00079400104
235	0xb1814730	-3.762487e-09
236	0xb63c50f7	-2.806131e-06
237	0xaa8df7d6	-2.5218602e-13
238	0xba1934df	-0.0005844365
239	0x32071f09	7.865091e-09
240	0xa50bcf9f	-1.2126673e-16
241	0xa9174ba5	-3.3594347e-14
242	0xb8bdc1ae	-9.048298e-05
243	0x9d00da07	-1.7053376e-21
244	0xb63eae6d	-2.8413735e-06
245	0xa785a9dd	-3.709908e-15
246	0x2789f598	3.829141e-15
247	0xadfb09c4	-2.8539733e-11
248	0x1915ee2b	7.751217e-24
249	0xa7a4e84c	-4.5771e-15
250	0xacb8e983	-5.2555195e-12
251	0xb01f432f	-5.7939337e-10
252	0xba41ae40	-0.0007388331
253	0xace6a502	-6.5553127e-12
254	0xb086be42	-9.803858e-10
255	0xb7263305	-9.90625e-06

fc3.weight f4 [1, 512]
0	0xb1355004	-2.638445e-09
1	0x2bafd591	1.2493774e-12
2	0x3a151908	0.0005687629
3	0xb98898c1	-0.00026053752
4	0x2b006960	4.562097e-13
5	0x2bbe863e	1.3537572e-12
6	0xb527fc82	-6.2579795e-07
7	0xa4c97859	-8.737373e-17
8	0xa65c9dd8	-7.654175e-16
9	0xa6de6a34	-1.5433131e-15
10	0x372e2c9a	1.0381593e-05
11	0x36920339	4.3515142e-06
12	0xb1bb849f	-5.4574936e-09
13	0xa072d168	-2.0567484e-19
14	0xa591d8a8	-2.5300302e-16
15	0xae82da53	-5.950498e-11
16	0xa613bca2	-5.1256515e-16
17	0xa40481a3	-2.8732744e-17
18	0xadba58db	-2.1185212e-11
19	0xbb49ae44	-0.0030774036
20	0xac2d7e42	-2.4654866e-12
21	0xac19c6de	-2.1853001e-12
22	0x29adc01c	7.716069e-14
23	0xafb018da	-3.2031872e-10
24	0xbb3aae9e	-0.0028485428
25	0xa2c06bed	-5.2155975e-18
26	0xb0a4440c	-1.1951911e-09
27	0xacd488f1	-6.040606e-12
28	0xabc55ac0	-1.402288e-12
29	0x310f7dab	2.0880673e-09
30	0xb1b029b4	-5.1270153e-09
31	0xbbb56407	-0.005535606
32	0x240964ee	2.979263e-17
33	0xb845b379	-4.7135607e-05
34	0xb680f9e5	-3.843789e-06
35	0xb0eeac78	-1.7365798e-09
36	0x33dddc9a	1.03312416e-07
37	0x3a8fe3a3	0.0010977875
38	0x3a2a9d43	0.0006508419
39	0x2c626d81	3.2177319e-12
40	0xa9482f8b	-4.4450158e-14
41	0xa990aa5f	-6.424439e-14
42	0x2faf5ba5	3.1897432e-10
43	0xb8a5b3bb	-7.9012905e-05
44	0x39da3195	0.00041617142
45	0xa85e413d	-1.2337622e-14
46	0xb980c3b7	-0.0002455988
47	0xb2996cfe	-1.7861108e-08
48	0xac737ac9	-3.4600536e-12
49	0x1cebcba7	1.5603638e-21
50	0xa76b1cb3	-3.262836e-15
51	0x2e9e7929	7.2065305e-11
52	0x3229b2d2	9.877754e-09
53	0x0ec9185f	4.9573794e-30
54	0x371a50bf	9.1979155e-06
55	0xa5c3a859	-3.3941185e-16
56	0xbcb5ba29	-0.022183495
57	0xaa35fe6a	-1.6164297e-13
58	0xbba9fcf4	-0.005187625
59	0xb5c17474	-1.4413513e-06
60	0x3af2d044	0.0018525203
61	0xa737bea4	-2.5499698e-15
62	0x390d5242	0.00013477451
63	0xb65c1c0a	-3.2798876e-06
64	0xb395fabd	-6.983962e-08
65	0x39920fc5	0.0002785904
66	0xb8c0fd8e	-9.202502e-05
67	0xbe669dc8	-0.22521126
68	0x34177250	1.4104558e-07
69	0xadd075bc	-2.3699147e-11
70	0xb6641a61	-3.3990002e-06
71	0xb46ce464	-2.2062301e-07
72	0x37124a0f	8.719521e-06
73	0xa72e357f	-2.4176351e-15
74	0xae96e2f6	-6.8615266e-11
75	0x3a471dce	0.0007595689
76	0x3ef47b79	0.47750452
77	0x273d89ef	2.6303793e-15
78	0x3abf35b4	0.0014588148
79	0x3a5bc38e	0.0008383327
80	0x2cb62422	5.1767627e-12
81	0x37b08dfb	2.104695e-05
82	0xb1d49c3e	-6.1877747e-09
83	0x382cf389	4.1234805e-05
84	0xa0458643	-1.6730973e-19
85	0xb2075909	-7.8782785e-09
86	0xaa16f755	-1.3408487e-13
87	0xa8a4a6e2	-1.8280031e-14
88	0xa814935f	-8.247606e-15
89	0x3711c15b	8.687693e-06
90	0x9da15d4a	-4.2712804e-21
91	0x26bf9c95	1.3295729e-15
92	0xa279671a	-3.3800374e-18
93	0xb3757349	-5.714836e-08
94	0x38be4acb	9.073837e-05
95	0xaeb90fa0	-8.4156015e-11
96	0xa5517bad	-1.8169763e-16
97	0x28f37274	2.7028056e-14
98	0xa7c560d2	-5.4783457e-15
99	0xb4ddbc35	-4.1301396e-07
100	0xb4d247c6	-3.916777e-07
101	0x30e132f3	1.6385385e-09
102	0xbcbc5ac3	-0.022992497
103	0xb92a2e71	-0.00016229764
104	0xa4171c33	-3.276679e-17
105	0xb81313cf	-3.506598e-05
106	0x35ad4de4	1.2912174e-06
107	0xb4ceb128	-3.8499388e-07
108	0xb03ec938	-6.9407546e-10
109	0xaefe5554	-1.156574e-10
110	0xa4600c2b	-4.8582564e-17
111	0x3831b54c	4.2368934e-05
112	0x25d715b6	3.7311267e-16
113	0xb4f8b828	-4.632759e-07
114	0x3b996d47	0.0046822163
115	0x386a9b91	5.593483e-05
116	0xab88e0a5	-9.725733e-13
117	0x39a402e0	0.0003128266
118	0x2acfabd9	3.688983e-13
119	0x2e73ef9e	5.5464626e-11
120	0xb604c72c	-1.9785466e-06
121	0x2de4f070	2.6027375e-11
122	0xa0d72b99	-3.6451267e-19
123	0xb42ee9fc	-1.6290136e-07
124	0xab17cbc9	-5.3928785e-13
125	0xb6d2fd03	-6.287942e-06
126	0x35bfcd25	1.4290314e-06
127	0x2f0a0ef5	1.255634e-10
128	0xb636bc20	-2.7229617e-06
129	0xa243fbcb	-2.6560726e-18
130	0xaee648ec	-1.04721426e-10
131	0xada57230	-1.8809038e-11
132	0xb93a3fe9	-0.0001776215
133	0xba8e4dce	-0.0010856928
134	0xb68e104e	-4.233828e-06
135	0x36f346cb	7.2502057e-06
136	0x38240fd9	3.9115406e-05
137	0x38d30497	0.00010062119
138	0xaaeea597	-4.2392194e-13
139	0x2fa47c30	2.9919667e-10
140	0xad0a43c7	-7.859441e-12
141	0x25438847	1.6959726e-16
142	0x2422b03d	3.527743e-17
143	0xa21ff3be	-2.1677554e-18
144	0x246c456f	5.1233155e-17
145	0xb2c47ca4	-2.2874083e-08
146	0xba8924e4	-0.0010463265
147	0xad5780b4	-1.2249913e-11
148	0xa2a1e038	-4.387654e-18
149	0x25f7c70b	4.2982547e-16
150	0xbea37388	-0.3192408
151	0x2cd16bfe	5.952127e-12
152	0x1b8fba7c	2.3777878e-22
153	0xae236594	-3.715213e-11
154	0xa909a75e	-3.056528e-14
155	0xac646ff0	-3.2462887e-12
156	0x910416da	-1.0420006e-28
157	0xb960979e	-0.00021418786
158	0xbcf485dd	-0.029848987
159	0x3435f838	1.694724e-07
160	0x14d2d411	2.1288227e-26
161	0xa79ad5ef	-4.2975534e-15
162	0x3aa4c12e	0.0012569779
163	0xba99f0f6	-0.0011744786
164	0x273b8e15	2.6028486e-15
165	0xba40e156	-0.00073577964
166	0xa84597f3	-1.09686455e-14
167	0xa3012b38	-7.002256e-18
168	0x39c4f1e7	0.00037564264
169	0xbaac6235	-0.0013151827
170	0xb40d0284	-1.3132563e-07
171	0xb71e194f	-9.4234265e-06
172	0xb144a716	-2.8616731e-09
173	0xac674b80	-3.2868985e-12
174	0xb6015577	-1.9272245e-06
175	0xafe28af3	-4.120789e-10
176	0xb7c24b24	-2.3161592e-05
177	0x36337d9c	2.6746193e-06
178	0x9dca37b9	-5.352657e-21
179	0x2f55bee1	1.9440051e-10
180	0xb9174ad4	-0.00014428358
181	0x293652c0	4.0483892e-14
182	0xa080c177	-2.1812068e-19
183	0xb282e878	-1.5239706e-08
184	0xb03eb02c	-6.937195e-10
185	0x39d7a526	0.0004113104
186	0xb61818e5	-2.2664256e-06
187	0x37db76a5	2.6162083e-05
188	0xb400c6c7	-1.1993244e-07
189	0x2019ace5	1.301681e-19
190	0xb58d81f4	-1.054314e-06
191	0x384e604a	4.9203903e-05
192	0x9e80c1c3	-1.3632665e-20
193	0x3b5158ca	0.0031943792
194	0xb1da2f73	-6.3500294e-09
195	0xb0251d42	-6.006823e-10
196	0x318dffb5	4.1327106e-09
197	0xb41e729b	-1.475659e-07
198	0x32f36160	2.8333204e-08
199	0xa09de892	-2.6750737e-19
200	0x390a12e6	0.00013167746
201	0xb9666679	-0.00021972683
202	0xa0a9a286	-2.8737263e-19
203	0xa172e00b	-8.228931e-19
204	0xb74a3a74	-1.2053748e-05
205	0xb862ff03	-5.4120097e-05
206	0x22dd6895	6.00129e-18
207	0xb9b902a3	-0.00035287914
208	0xa301ec85	-7.043189e-18
209	0x28417493	1.073893e-14
210	0x339a5720	7.187032e-08
211	0x3a2fc8f2	0.00067056634
212	0xadd2ae0b	-2.3951527e-11
213	0x168b71cb	2.2528475e-25
214	0x349cca6a	2.920454e-07
215	0x91b762c7	-2.8933185e-28
216	0xa234b983	-2.4492758e-18
217	0xbc34cd46	-0.011035269
218	0x2c854d77	3.7886877e-12
219	0xb7932228	-1.753967e-05
220	0x39c35c82	0.00037262222
221	0x382da3ab	4.1398842e-05
222	0xb48288e5	-2.431399e-07
223	0x9f9e2df4	-6.6991626e-20
224	0xb7087422	-8.133271e-06
225	0x31395906	2.6971647e-09
226	0x369a56f9	4.5996826e-06
227	0xa5d0dc8a	-3.6231691e-16
228	0xbbad6b87	-0.0052923593
229	0xb0bb027a	-1.3606745e-09
230	0xb28d7411	-1.6467341e-08
231	0xb59013e6	-1.0734627e-06
232	0xb8226516	-3.8717953e-05
233	0xb79ee910	-1.8943596e-05
234	0xbb150e56	-0.002274414
235	0x2e9ff6cb	7.274322e-11
236	0xb68fc53d	-4.2846937e-06
237	0x2b5886f3	7.6925895e-13
238	0xba5a7acf	-0.000833434
239	0xb1cdf529	-5.9941567e-09
240	0x239a3358	1.6718458e-17
241	0x29a35029	7.25256e-14
242	0xb8d8c974	-0.00010337206
243	0x1bc58587	3.2677206e-22
244	0xb6057f1a	-1.9892527e-06
245	0xa83fb3b3	-1.0641596e-14
246	0xa81883c0	-8.466264e-15
247	0xad4b4448	-1.15543755e-11
248	0x1b7c7071	2.0881283e-22
249	0xa9125ee4	-3.2500817e-14
250	0x2c8d88a8	4.022633e-12
251	0xb06ceb9a	-8.619111e-10
252	0x39d763e8	0.00041082432
253	0xaea320c1	-7.4182e-11
254	0x3082344b	9.473607e-10
255	0x3753707d	1.2602771e-05
