checkpoint_p0.pth (torch_old, 144714 bytes, 6 tensors)

fc1.weight f4 [64, 24]
000000 fb 18 dc bc a2 27 18 bf e8 2c 40 bd 9b 00 7b 3d
       -0.02686738 -0.59435475 -0.046917826 0.061279874
000010 fd fa 16 c0 85 68 00 bf 8a cd 8a 3d 84 76 82 3d
       -2.359069 -0.50159484 0.06777485 0.06370261
000020 e4 bc 89 be 49 44 11 bf 2e 79 37 3d de 49 04 3e
       -0.26901925 -0.5674482 0.0447933 0.12918803
000030 98 bf 43 be 4a b2 90 3e 35 a7 7b bd a3 58 8f 3b
       -0.19116056 0.28261024 -0.061438758 0.00437458
000040 38 7f 9b be 90 26 b1 be ec fc 28 3c 82 6c a7 bd
       -0.30370498 -0.34599733 0.0103142075 -0.08174993
000050 37 68 25 40 88 0f f0 3f 1b 6a c7 3c df 87 08 be
       2.5844858 1.875474 0.024342587 -0.1333308
000060 d4 80 f6 3e 81 0c ba be 7d e9 7e 3c 77 e7 50 be
       0.48145163 -0.36337665 0.015558598 -0.20400797
000070 0c 00 00 bf 2d d4 33 3f ad ef 88 bd 3a ec 1e be
       -0.5000007 0.7024563 -0.066863395 -0.15519801
000080 c9 22 05 3f 43 77 fd bd 41 54 27 be 0a 07 a0 be
       0.520062 -0.12376263 -0.16340734 -0.3125537
000090 bd 22 90 be 82 1d ee 3e 1d 88 df bc 61 cd b7 be
       -0.28151503 0.46506888 -0.027286584 -0.3589888
0000a0 80 a7 14 3f 5c 53 13 bb e5 5c 65 bf e3 e3 64 bd
       0.58068085 -0.0022480106 -0.8959487 -0.055881392
0000b0 35 e4 dd be 73 bf a0 3e c5 da 34 bf 54 9f 33 bd
       -0.4333817 0.31396064 -0.70646316 -0.04385312
0000c0 2e f3 1b 40 a6 b9 5b 3f 40 90 81 bc 48 bb 8a 3e
       2.4367175 0.8583015 -0.015815854 0.2709601
0000d0 36 11 3e 3e 33 a6 90 be b9 4f 94 3c d9 4d 97 3e
       0.18561253 -0.282518 0.018104421 0.2955158
0000e0 75 76 01 40 88 f5 3c 3f 48 33 19 3e f1 31 29 3d
       2.022855 0.7381215 0.14960968 0.041307393
0000f0 7d 06 12 3e 5c 14 b1 bd ce 73 f6 3c c7 f1 bf 3d
       0.14260288 -0.08646461 0.030084517 0.09372287
000100 5d 20 99 3f 65 a0 60 3f 60 25 85 3e 83 39 1c 3b
       1.1963001 0.8774474 0.26005077 0.002383799
000110 04 18 cd 3d 2c 80 d2 bd 69 7c 03 3e e3 19 4d ba
       0.10014346 -0.10278353 0.12840427 -0.0007823987
000120 9a cb de 3f c2 de a4 3e 53 44 de 3d a0 80 f9 3d
       1.7405884 0.322012 0.108528756 0.121827364
000130 9f 52 64 3e 11 be 49 3e 84 0b e1 3d f5 87 26 3e
       0.22297142 0.19701411 0.109885246 0.16262801
000140 90 5e 98 3f 37 f5 04 3f 6e a9 19 3e 83 19 08 be
       1.1903858 0.5193667 0.15006039 -0.13290982
000150 08 9e 9a 3e 17 08 6e 3e 42 e9 d2 3d b9 cb 49 be
       0.30198693 0.23245274 0.10298397 -0.1970662
000160 61 69 5b 3f d1 26 e0 3e bf bc 6c bc a1 56 35 be
       0.8570767 0.43779615 -0.014449297 -0.17708828
000170 6b 6c aa 3d 26 d7 c7 3e 4e 66 30 be 28 90 16 bd
       0.0832146 0.39031333 -0.17226526 -0.036758572
000180 fc 0d bb 3f 43 f3 e9 bb bf 2f f2 bd c3 51 03 bf
       1.4613643 -0.0071395948 -0.11825513 -0.51296633
000190 a3 7a 2a bf 6d fc 01 c0 aa 40 99 3c 95 c3 0c bf
       -0.6659338 -2.0310318 0.018707592 -0.54985934
0001a0 bd e0 86 3f a8 96 93 be 43 65 8f bd 1c 7b 42 3e
       1.0537335 -0.2882588 -0.07001736 0.18992275
0001b0 a4 fe 29 3e 79 e5 5f bf 69 ab c7 bd 05 8b 93 3e
       0.16601044 -0.8745952 -0.09749491 0.28817
0001c0 31 5f 50 3f a4 c5 48 bd bf c3 96 bd 23 2a ea 3e
       0.8139525 -0.04901661 -0.07361554 0.45735273
0001d0 0b 6f 00 3f dd 23 b0 be 7f 27 38 bd 83 80 dd 3e
       0.5016944 -0.34402362 -0.04495954 0.4326211
0001e0 91 c0 66 3f 1b e3 a4 3e 02 25 7b bd ea 74 c9 bd
       0.90137583 0.32204518 -0.06131459 -0.09836753
0001f0 e2 6c b6 bc 27 1a bf bf f3 b2 1b 3c ff 65 c8 3b
       -0.022268716 -1.4929856 0.009503114 0.0061156745
000200 25 01 8b 3f b8 06 e9 3e 2d 3e 24 be 28 68 0a 3e
       1.0859724 0.45512938 -0.16039343 0.13516295
000210 cf c5 d9 3c 1c 9e c4 bf 1f 81 1b bd 9a 8b 44 3e
       0.02658358 -1.5360751 -0.037964936 0.19193879
000220 90 84 99 3f 9e cc 06 3f 0a 7a f4 bd d2 72 ae 3e
       1.199358 0.5265597 -0.119373396 0.34071976
000230 f1 bf e3 3e e5 f7 60 bf 39 1d bc bd 93 d6 19 3e
       0.44482377 -0.8787826 -0.09185261 0.1502326
000240 04 9c a8 3e 50 a8 c7 3f 17 b8 a1 bc 92 83 b0 3c
       0.3293153 1.559824 -0.019741101 0.021547113
000250 12 d9 2e bf b7 ce 13 3f 09 8b 11 3e 46 cf 15 3e
       -0.68299973 0.57737297 0.14213194 0.1462985
000260 68 72 bb 3d 4f 1b d0 3f 3e da 3b bd 2b d3 ee bd
       0.09152681 1.6258334 -0.04586243 -0.11661371
000270 03 e8 70 be e2 5c 79 bf 61 84 b3 3d 20 e6 33 be
       -0.23526005 -0.9740735 0.08765484 -0.17568254
000280 99 1f 74 be 24 cf bb 3f 2a 0e ae 3d 59 ae f8 bb
       -0.23840179 1.4672589 0.08498795 -0.0075891432
000290 25 31 8a 3d 2b 04 a7 c0 b5 4b 5b 3e 35 de 2c be
       0.06747655 -5.219259 0.21415599 -0.1688164
0002a0 32 8e 19 3c ac 45 8e 3f 6d 7c 00 bb e0 29 8a 3d
       0.009372281 1.1115012 -0.0019605414 0.06746268
0002b0 a9 8e 8a bd 5d 5f 3a 3f 15 55 90 3d eb 38 bf 3d
       -0.067654915 0.7280176 0.07047478 0.09337028
0002c0 f7 a4 07 bf 73 79 89 3f 76 6d 8b 3d ce 6e e8 bc
       -0.5298609 1.0740188 0.068079874 -0.028373148
0002d0 fb 6a a8 3d 41 25 56 bf 8b ae 7e 3d b4 56 db bc
       0.0822353 -0.83650595 0.062178176 -0.026774742
0002e0 ac 73 69 bf 0b 97 9b 3f 05 42 a3 bd e8 10 5e 3e
       -0.91192126 1.215547 -0.079715766 0.21686137
0002f0 be 8a 3a 3f df 49 aa c0 ea b4 42 3d 2d 6e 5c 3e
       0.72867954 -5.3215175 0.047535814 0.21526404
000300 69 f5 a8 be 67 fa 0c bf 77 23 69 bc 1e 39 de bb
       -0.32999733 -0.55069584 -0.014229647 -0.0067817112
000310 69 74 02 40 62 72 6b 3d d1 f3 fd 3d 08 37 55 bd
       2.038355 0.05748213 0.1240002 -0.052054435
000320 36 56 d8 3c 9e 32 e6 bd fa 87 f1 bd 7b 51 74 bd
       0.026408296 -0.11240123 -0.117935136 -0.05964802
000330 36 11 e7 ba 44 ec 1f 3f c5 9a f7 3c 3e b3 17 be
       -0.0017629031 0.6246989 0.030225167 -0.14814469
000340 c3 8d fd 3d 7c 25 12 3e 2d a2 90 3c 80 3e cc 3e
       0.123805545 0.14272112 0.017655456 0.39891434
000350 39 9c 15 c0 ea 83 22 40 b3 1d 3b 3d ee 5f ac 3e
       -2.33766 2.5393014 0.04568262 0.3366694
000360 51 79 2e bd 05 3d 0a 3f 8f 5f 60 bd 1f 4f 30 be
       -0.042596165 0.5399936 -0.05477863 -0.17217682
000370 98 52 10 3f 55 e9 25 c0 ae 68 91 3b 2c 8b 0a be
       0.5637603 -2.5923665 0.0044375276 -0.13529652
000380 ca a8 63 be 5d 5c 0a 3e ba e7 89 bd c2 41 f1 bd
       -0.22232357 0.13511796 -0.067336515 -0.117801204
000390 6c e7 d9 bd 57 71 e4 bc 4f 13 1c be 85 63 6a bd
       -0.10639843 -0.027886076 -0.1524174 -0.057223815
0003a0 f2 77 58 bd 8d ce c2 3e 5d cb 44 be ec 0e cd 3e
       -0.052848764 0.3804821 -0.19218202 0.40050447
0003b0 23 4e 4d bf da 9c 35 40 ef fc 09 bd 31 98 83 3e
       -0.8019735 2.8376985 -0.033688482 0.2570205
0003c0 e1 31 7c 3f ff a4 95 3e 10 2f f7 3b 9b 36 a0 be
       0.9851361 0.29227445 0.007543452 -0.3129166
0003d0 ff a2 9b bf e6 97 0c c0 2a 2f 01 bd 08 71 cd be
       -1.2159117 -2.1967711 -0.03153912 -0.40125299
0003e0 5a 88 7e 3f 79 26 90 be 29 31 c7 3d 07 86 2a bd
       0.99426806 -0.28154352 0.097261734 -0.041631725
0003f0 78 8a b8 bf c8 55 03 bf 88 ad cb bb 1c 92 64 bd
       -1.4417257 -0.51302767 -0.006215755 -0.055803403

fc1.bias f4 [64]
000000 04 c0 90 3e e6 a5 5b 3f 1b a5 53 bf a2 58 dc be
       0.28271496 0.85800016 -0.82673806 -0.4303637
000010 28 03 d5 bf f9 5f 39 bf 55 e1 b1 3f 20 7b ef 3f
       -1.6641588 -0.7241207 1.3896891 1.870945
000020 f8 91 10 3f 86 e3 01 bf 97 50 60 bf 52 d4 0a bf
       0.5647273 -0.507378 -0.8762297 -0.54230225
000030 33 f0 1b c0 eb ab 88 3f 25 b7 06 3f 01 02 8b bf
       -2.4365356 1.0677465 0.52623206 -1.0859987
000040 11 c5 b4 bd 44 15 10 c0 f2 cf 2b 3f 42 c3 b9 3f
       -0.0882665 -2.251298 0.67114174 1.4512713
000050 96 a2 d2 3d f6 40 02 bc b4 bf 84 bf 9e 91 41 40
       0.10284917 -0.007950058 -1.0371003 3.0245128
000060 38 b9 86 be 77 4d a3 3e a7 47 99 3f de 6a 42 bf
       -0.26313186 0.31895038 1.1974992 -0.75944316
000070 5d 8d 0c 3f 9f b4 cf 3d ea 27 99 bf 62 fc 30 3f
       0.54903203 0.101418726 -1.1965306 0.69135106
000080 81 76 74 bf d3 5b 00 be 68 71 5d 3e 30 30 f3 3f
       -0.9549332 -0.12535028 0.21625292 1.8999081
000090 a3 e5 6a bf 9f 02 7c be 5c 7c 6e be fe 3b 0e bf
       -0.9175665 -0.24610375 -0.23289627 -0.5556029
0000a0 ec bd 01 bf 28 8c 3b bf e9 d2 0d c0 03 e8 a6 3e
       -0.5068042 -0.73260736 -2.215998 0.32598886
0000b0 f9 86 15 bf 81 c7 02 3f da 63 e8 bf 3f 9c 92 bf
       -0.58409077 0.5108567 -1.8155472 -1.1453933
0000c0 87 48 02 3f 75 66 cd bf 49 02 18 bf 52 42 b3 bf
       0.5089192 -1.6046892 -0.59378487 -1.4004614
0000d0 ea 24 28 bf aa e0 dc 3f 06 ef 00 bf 6b 27 2d bf
       -0.65681326 1.7256062 -0.5036472 -0.6763827
0000e0 eb 89 dc 3e d7 b7 f3 3d 47 e9 59 bd 5b a0 a3 3f
       0.43073973 0.11900299 -0.053200986 1.2783312
0000f0 4e 92 c4 be ee eb 05 bf a7 39 32 bf de f0 10 3e
       -0.38392872 -0.52313125 -0.6961922 0.14154384

fc2.weight f4 [512, 64]
000000 e6 73 1b bd c0 b7 8a 3b 3e 01 b6 3b e0 21 81 bd
       -0.037952326 0.0042333305 0.0055543473 -0.06305289
000010 c8 6b 68 bc b6 5c 32 3c 6e 41 ec b9 42 a1 18 bd
       -0.014185853 0.010886362 -0.00045062177 -0.037263162
000020 a9 27 6a bd 0a 26 2c bb fe 46 c9 3b 53 08 8d bb
       -0.05716673 -0.002626779 0.006142496 -0.004303971
000030 23 4f 37 bc 34 c0 7a bd a1 48 9c bc fa cb 0a bc
       -0.011188301 -0.061218455 -0.0190776 -0.008471483
000040 40 57 49 bd d4 ca 56 3c 47 e8 62 bd ef 70 3b 3c
       -0.049155474 0.013109881 -0.0553973 0.0114405
000050 6f 49 c2 bc 88 38 50 bc af b7 01 bd f1 4b 0f bc
       -0.023716656 -0.012708791 -0.031669315 -0.008746133
000060 b6 1f 5b bd ec 0b b3 3b 4e b3 64 3b c6 3c a8 bc
       -0.05349704 0.0054640677 0.0034896913 -0.020536792
000070 05 ff 60 bd 30 51 dd bc e4 46 f9 bb ac 61 2d bd
       -0.054930706 -0.027016252 -0.007607328 -0.042329475
000080 e0 3d 72 bd 81 b9 03 3c 1d 90 5e 3b 99 40 56 3c
       -0.05914104 0.008039833 0.003396041 0.013076925
000090 01 e9 2a bc dc d8 bb 3c 6c e5 81 bc f0 44 09 bd
       -0.010431529 0.022930555 -0.015856467 -0.03351301
0000a0 c5 18 24 bd b1 13 66 bd 10 45 03 bb 1f 79 c8 bc
       -0.040062685 -0.056171123 -0.0020030178 -0.024471818
0000b0 65 31 b2 3a 7b c3 bb 3b 2e aa 7b bd 53 1b 30 bd
       0.0013595043 0.00573009 -0.061441593 -0.04299481
0000c0 ea b5 64 bd 01 5d 7c bd a5 85 df bc 09 0f fa bc
       -0.05583755 -0.061612133 -0.027285406 -0.030524747
0000d0 bc 92 33 bc c4 b3 be bb 74 69 da bc bd f1 38 3c
       -0.010960277 -0.0058197696 -0.026661612 0.011288104
0000e0 62 1c 56 bd 54 c4 48 bd eb 2e c5 bc b8 bd 28 3b
       -0.05227316 -0.049015358 -0.024070224 0.0025747847
0000f0 7a 42 6c 3c 7f 1a b4 3b c8 30 42 bd 16 53 60 3c
       0.014420146 0.0054963226 -0.047409803 0.013691684
000100 d1 4b d6 bc f6 f8 e9 bc ff 1e a8 bc a4 7a 96 bc
       -0.026159199 -0.028561097 -0.020522593 -0.018369026
000110 2f e9 bb bc f3 a0 2e bd a0 9e 02 bd 71 16 53 bd
       -0.022938339 -0.042633962 -0.031889558 -0.051535074
000120 af 13 84 bd 1e 0b 5e bc 22 73 38 3c 10 6b 7b 3c
       -0.06449067 -0.013552455 0.011257919 0.01534535
000130 02 d7 88 bd 7e 27 5b bd 55 fd c1 bc 93 7e 73 bd
       -0.066816345 -0.05350446 -0.023680368 -0.059446882
000140 62 9d 09 bb e9 56 f8 bc 10 4e 8e bc c3 bc b1 3c
       -0.0020998348 -0.03031488 -0.017371207 0.021696454
000150 7a 5b 47 bd b1 b0 83 bd bb ff c2 bc c4 a9 9c bc
       -0.048671223 -0.064301856 -0.023803582 -0.01912392
000160 51 22 86 bb 25 c0 e9 bc d6 80 0e bd 15 61 f6 3b
       -0.0040934463 -0.028534004 -0.034790836 0.0075188973
000170 e9 6d ea bc f7 b5 a9 3b 78 51 cd 39 c4 f1 64 bd
       -0.028616862 0.0051791626 0.00039161346 -0.05589463
000180 c2 03 9c 3b cd 6a 2b bd b8 51 6b bd 21 68 47 bd
       0.00476119 -0.0418499 -0.05745098 -0.04868329
000190 4b d0 b2 bc 57 86 59 bb 62 98 e2 ba 9f fd bf 3a
       -0.021827837 -0.0033191645 -0.0017287845 0.0014647729
0001a0 81 d5 0d bd e6 f5 31 bd d9 a7 2f bd 97 ea 2c 3c
       -0.03462744 -0.043447398 -0.04288468 0.010553977
0001b0 9d 59 20 bd 6c 08 0b 3c 10 12 0d bc d7 24 d7 bc
       -0.039147962 0.008485895 -0.0086102635 -0.026262684
0001c0 a1 fb de bc 75 aa 73 bc a0 6a 2e bc ac 32 22 bc
       -0.027219595 -0.014872183 -0.010645539 -0.009899776
0001d0 ee ee e0 bc 12 91 31 3c 11 73 b3 bb e3 67 0c bc
       -0.02745768 0.01083781 -0.0054763635 -0.00856969
0001e0 83 f9 fc bc b5 81 be bc e5 ad 44 bd 61 84 6a bc
       -0.030880695 -0.023255209 -0.0480174 -0.014313788
0001f0 02 12 8f 3c 86 80 01 bd be 77 3f bd f8 dc 3b bc
       0.017464641 -0.03161671 -0.046745054 -0.011466257
000200 45 84 3d bd 69 6a 80 bd cf 75 94 bd bc 36 1f bd
       -0.04626872 -0.06270296 -0.07249033 -0.03887056
000210 bd ca 68 3c 42 f2 bd bc af cb 15 bd 17 d8 2e bd
       0.014208493 -0.023186807 -0.0365712 -0.042686548
000220 a7 6c 5b bd 18 50 5c bd cc fb 2e bc 71 5a 57 bd
       -0.053570416 -0.05378732 -0.01068015 -0.052576486
000230 7d 8f 63 bd dd 7c 5b bd 06 ce 1b bd 39 30 88 bd
       -0.055556763 -0.053585876 -0.038038276 -0.06649823
000240 37 da 45 bd 2f 81 51 bd d9 b2 76 bc b8 9f 61 bd
       -0.04830381 -0.05114859 -0.015057289 -0.05508396
000250 98 71 81 3c dc 21 7b bd f6 67 8b bd a6 b0 00 bd
       0.015801236 -0.061311588 -0.06806938 -0.031418465
000260 87 a3 14 bd b0 7d 6b bc 71 26 13 ba db 9d ce bc
       -0.036288764 -0.014373228 -0.0005613333 -0.025221756
000270 0b 76 73 bd 88 4e aa 3c 95 3b f7 bc 87 85 98 bc
       -0.059438746 0.0207894 -0.030179778 -0.018618358
000280 ff 80 84 bd ec b8 89 bc 53 a4 38 3c f8 65 89 bd
       -0.064699166 -0.01681181 0.011269647 -0.06708902
000290 b0 48 2c bc fa 8b 21 3c 22 e3 0f 3c 4f eb c0 ba
       -0.010515377 0.009860033 0.00878218 -0.0014718565
0002a0 24 58 b3 bb bf 71 0b bd 67 56 d3 bc 0e 2b c1 3c
       -0.0054731537 -0.034044024 -0.025798036 0.0235801
0002b0 1b 64 25 bc 69 d9 ff bb 76 12 9e 3a 9c ba 83 bc
       -0.010094668 -0.0078078997 0.0012059945 -0.016080193
0002c0 6f 3f 35 bd 9d e0 6c bc 89 78 01 3c fb 8b f9 bc
       -0.044249948 -0.014457849 0.007902273 -0.030462256
0002d0 74 71 cd 3c 9e 4e fd bb 5a 4b 1c bc c9 e7 2c bc
       0.025078513 -0.007730319 -0.00953945 -0.010553309
0002e0 12 dd 8a 3a 7e e6 75 bd 58 2b 85 bd f1 d5 f2 bc
       0.0010594449 -0.060034268 -0.06502408 -0.02964303
0002f0 37 c8 85 bd 6f ef c9 ba bc 72 18 bd b3 eb 77 bd
       -0.065323286 -0.001540644 -0.037218794 -0.060527515
000300 ff 02 57 bf 5b 27 16 3f cf a5 3c 3e 1b e4 24 3f
       -0.83988947 0.586538 0.18422626 0.6441056
000310 b4 80 c2 bd ff 32 b3 3e f3 94 c3 bf d8 60 99 bf
       -0.094972044 0.34999844 -1.5279831 -1.1982679
000320 e1 1c 71 3f 1f e6 ab 3f eb 4d 9f be 7d 06 5a 3f
       0.9418469 1.3429602 -0.31114134 0.8516615
000330 68 6a d9 bf d8 41 86 be 82 2e e3 be 22 9d ba be
       -1.6985598 -0.2622211 -0.4437142 -0.36448008
000340 26 91 4e 3f 48 41 9b bf 47 a0 c1 be 63 d2 89 be
       0.8069023 -1.2129297 -0.37817594 -0.26918325
000350 bf 7a 05 bf e8 f8 7e be 72 aa 9f be 61 e7 b5 be
       -0.5214042 -0.24899638 -0.31184727 -0.3552809
000360 91 86 59 be e1 50 44 3b f0 d5 97 bf dd 08 5b bf
       -0.2124274 0.0029955434 -1.1862164 -0.855604
000370 2f 56 86 3f c3 b0 01 3f 86 dc 56 3e c3 b5 08 be
       1.0495051 0.5066034 0.2098256 -0.13350587
000380 e4 27 a7 be 9f 8b 7d bf 11 08 61 be 00 a8 47 be
       -0.32647622 -0.9904117 -0.21975733 -0.1949768
000390 5e 19 59 3d c3 15 1a be 04 63 44 3e fa 4c f9 be
       0.053002708 -0.15047364 0.19178396 -0.4869154
0003a0 45 da 9b 3e 14 df c7 be 3e fc ae 3d aa f5 21 3e
       0.30439964 -0.39037383 0.08544205 0.1581637
0003b0 a7 20 c0 38 da 07 97 bf ae c4 1b be 54 ba a1 bd
       9.1613554e-05 -1.1799271 -0.15211746 -0.078968674
0003c0 fe 3d 72 bf 52 12 bb bf 4a 5e 1f 3f 7f 83 64 bf
       -0.9462584 -1.4614966 0.6225325 -0.8926315
0003d0 45 d8 19 bf c7 93 bd bf 21 21 2d 3e 3a fd 05 3e
       -0.60095626 -1.4810723 0.16907169 0.1308488
0003e0 b0 56 6a bf 00 0f 19 3e e0 3e 90 be 27 c6 8a be
       -0.91538525 0.14947128 -0.2817297 -0.27104303
0003f0 99 4d a9 3e 55 a6 2d be 1b 6e 44 3e 71 bc e6 bd
       0.33067015 -0.16957982 0.19182627 -0.11266411

fc2.bias f4 [512]
000000 f1 4c 20 bd c5 75 01 bd 63 62 f0 3b f0 0b bc 3e
       -0.039135877 -0.031606454 0.0073359474 0.36727858
000010 c0 92 79 bd ac 38 cd bd 7e bd 5f bd 5f b8 07 be
       -0.060930967 -0.10020575 -0.054624073 -0.13253926
000020 92 61 fc bc e2 ad af 3c 2a 83 3d bf 5f a0 7a bf
       -0.030808244 0.021445218 -0.74028265 -0.97900957
000030 e0 a3 60 3f 6d 27 b5 bd df 5b 64 bf 16 56 9f bd
       0.87750053 -0.088454105 -0.89202684 -0.077800915
000040 8b 2d ee be d8 7d 95 bd 55 b6 4b bf 52 a4 f0 be
       -0.46519122 -0.072993934 -0.7957509 -0.47000366
000050 a6 28 8b bd 9a 1d 25 be 5f 7f 22 3f ad 46 02 be
       -0.067948624 -0.16124573 0.634756 -0.12722273
000060 fe 1c 6e bc 15 60 94 bf 4c cb 6f bf ba 1a 99 be
       -0.014533279 -1.1591822 -0.9366958 -0.29903203
000070 b3 a7 2d 3f 4d ad 1e bd 46 79 77 bd 9f b1 98 bf
       0.67834014 -0.03873949 -0.06041839 -1.1929206
000080 84 3c cb bd a7 e4 8b bd a2 63 f3 be 01 b8 87 bf
       -0.09923652 -0.06830721 -0.4753695 -1.0603029
000090 d4 f5 23 bf e5 8d 32 3e 9c 25 f3 be 7f a3 35 bd
       -0.6404698 0.17436941 -0.4748963 -0.044345375
0000a0 ea b2 47 bf 75 cc e5 bd 58 fd 10 bf 4d db 7c bd
       -0.78007376 -0.11220638 -0.5663657 -0.06173258
0000b0 56 50 14 bf 3d 69 ea 3d 36 68 84 bd 73 b2 9d bd
       -0.5793508 0.11445854 -0.06465189 -0.07700052
0000c0 43 6f eb bd 5c 58 01 be 9f 6d 98 bd c9 37 88 be
       -0.11495831 -0.12631363 -0.074427836 -0.2660506
0000d0 1b 37 32 be 18 01 dd bd 73 2c 0d c0 6c 6e 60 bf
       -0.17403834 -0.10791224 -2.205838 -0.8766849
0000e0 0a 49 51 be db 11 fc bd 58 91 2d bf 3b de e7 bc
       -0.20438018 -0.12308093 -0.677999 -0.02830421
0000f0 86 0f 34 be 25 9a 61 bf e9 ca 52 bd d3 ac 7b bf
       -0.17584047 -0.8812583 -0.05146304 -0.98310584
000100 6f da b2 bd 12 26 2a bf 03 d6 58 3f 4d fb d6 bd
       -0.08733069 -0.6646434 0.84701556 -0.104971506
000110 a8 17 ac 3c a0 e6 c0 3c 21 54 4c bc 4c 1a a3 bd
       0.021007374 0.02354747 -0.01247123 -0.07964
000120 26 fd a9 bf 55 ff 42 bc 75 8c 58 bf 7c 7b 32 be
       -1.328038 -0.011901696 -0.8458932 -0.17429918
000130 d7 68 a3 bd 73 30 5e bf 13 13 88 be b2 d0 10 be
       -0.07978981 -0.8679268 -0.26577052 -0.14142111
000140 2a d8 cb bd a9 96 d4 3c 52 fd 41 be 3e cf 39 bd
       -0.099533394 0.025950747 -0.1894429 -0.045363657
000150 30 b4 18 be af 09 61 be 68 68 08 be 9d 61 50 bf
       -0.14912486 -0.2197635 -0.13321078 -0.81398946
000160 de 33 24 3d 8e 28 e0 be cc 41 b0 3c 4a 81 4a 3e
       0.040088527 -0.4378094 0.02151575 0.19775882
000170 8b 91 97 be d3 38 c3 bd fb 44 37 be b6 39 b1 3d
       -0.29603228 -0.09532323 -0.17897408 0.086535856
000180 19 0e 1a bf 8e a3 13 be 78 f5 0b be 97 cb fe be
       -0.6017776 -0.1441786 -0.13667858 -0.49764702
000190 1e 93 23 be e1 e1 93 bd 58 6a 2c bc 27 80 37 bf
       -0.1597409 -0.07220817 -0.010523401 -0.7167992
0001a0 03 0d 28 be ea d1 90 be 2c a1 ad 3e 0b e2 a7 bd
       -0.16411214 -0.28285152 0.33912027 -0.08197411
0001b0 af ad 35 bf 4a cf 89 bd f8 e0 48 bf d8 41 0f bf
       -0.70968145 -0.067289904 -0.78468275 -0.55959845
0001c0 9a d4 5a bd 04 ae 8b bf a4 dc 78 bc 60 27 2d bd
       -0.05342541 -1.091248 -0.015189324 -0.04227388
0001d0 09 e5 f9 bd d7 90 47 bc 9e d8 54 bd a9 75 5c bd
       -0.12201888 -0.012180529 -0.051964395 -0.053823147
0001e0 98 af 0b be 6d b8 7e be 30 15 8b bd 88 f5 d1 3c
       -0.13641202 -0.2487504 -0.067911506 0.025629774
0001f0 5a 5a 8c bd cd 52 e6 be af 96 a0 bb 19 dc b4 bd
       -0.06853171 -0.44985047 -0.0049007754 -0.08831043
000200 24 47 86 be c3 ee 90 3e 6b af 20 3c a6 b2 a1 bf
       -0.2622615 0.2830716 0.009807448 -1.2632644
000210 91 d8 0c 3d 92 54 79 3a 1e a8 1e be 65 ad 24 be
       0.03438622 0.0009511198 -0.15493819 -0.1608177
000220 26 a5 0d be 44 8b 77 be 88 a7 82 bd 0e 5a 5f 3b
       -0.1383253 -0.2417422 -0.0637961 0.0034080776
000230 38 9a e8 be e6 db 13 bd 82 93 44 3f 84 f0 ca bd
       -0.4543016 -0.036098383 0.7678758 -0.09909156
000240 6e 78 26 be e2 a8 29 be 5b fb bf bd 7e 4d 50 3d
       -0.16256878 -0.1656833 -0.09374114 0.050855152
000250 69 55 59 be e1 4e b1 be b4 99 b5 be 59 69 a8 bc
       -0.21223988 -0.34630492 -0.3546883 -0.020558046
000260 c9 b1 f4 3c 38 aa bf bd 15 93 a7 be 45 a9 13 3e
       0.02986993 -0.093586385 -0.32729402 0.1442004
000270 0b 75 51 bf f7 6d e6 be 91 59 35 bf e8 ca d8 be
       -0.8181922 -0.45005772 -0.7083979 -0.42342305
000280 b3 2e 95 bc e4 09 a1 be 5a c2 ab 3e 07 c3 04 3d
       -0.018210744 -0.31452858 0.33546716 0.032412555
000290 86 df e1 bd ad 66 ac be b0 62 17 be 64 6b 3b bd
       -0.11028962 -0.33672085 -0.1478374 -0.045756713
0002a0 17 9a 94 be 15 11 4c bf 51 ef eb be 1e 1c 04 be
       -0.2902381 -0.79713565 -0.4608102 -0.12901351
0002b0 56 1f ef 3d 97 49 16 be 74 37 0a be 31 d0 83 bd
       0.11675899 -0.1467651 -0.13497716 -0.06436194
0002c0 35 46 99 bf 19 64 07 bf b8 4e e2 bb 0c 52 30 3f
       -1.197455 -0.5288711 -0.0069063567 0.68875194
0002d0 25 58 af bd ae 7d 20 be 35 da d4 bf fd 36 d1 bd
       -0.08561734 -0.15672943 -1.6629092 -0.10215566
0002e0 0e 25 fd be 79 93 c2 bd e5 fc 13 be 16 33 ae be
       -0.49442333 -0.095007844 -0.1445194 -0.3402335
0002f0 cd 80 82 be 50 15 f0 be 21 07 01 bf 8e 08 82 be
       -0.25488892 -0.4689126 -0.504015 -0.25397152
000300 1e ca da be 67 b1 10 bf 4e 6a 5e bd 60 4f 53 bd
       -0.42732328 -0.56520694 -0.0543006 -0.05158937
000310 3c be b9 be 8c 67 d2 bd 28 38 10 be 69 17 e4 bd
       -0.3627795 -0.10273656 -0.14083922 -0.11137278
000320 25 ef 5d be bf 23 e6 be 00 12 85 bd 26 03 d9 be
       -0.21673258 -0.44949147 -0.06497574 -0.42385215
000330 2e b9 11 bf 99 f9 0b bf c1 0b 45 3e 7d 5b 00 bf
       -0.56923187 -0.5467773 0.19242765 -0.501396
000340 40 ab ed bd 9c b9 cd 3c 51 f4 ec bd 3a 9b 70 bd
       -0.11604929 0.02511292 -0.11570037 -0.058741786
000350 33 74 4c bd ac 6e b1 3e 78 6d 00 be ae 7f 36 be
       -0.049915504 0.34654748 -0.12541759 -0.17822143
000360 5d 82 43 bd 11 78 c9 be a2 8f 83 bd 23 08 41 bd
       -0.047731746 -0.39349416 -0.0642388 -0.0471269
000370 7b 12 83 be 22 c6 ee bd d1 65 98 bd a0 02 75 bd
       -0.25600037 -0.116588846 -0.07441295 -0.059816957
000380 43 6e 0d bf 29 13 42 3e 77 c2 9d 3e 76 ed 45 be
       -0.5524637 0.18952622 0.30812427 -0.19328865
000390 d1 48 34 bf 8d a4 9e bd 7e bf 7c bd 88 da 08 bd
       -0.7042361 -0.07746229 -0.06170606 -0.033411533
0003a0 15 64 b4 bd 95 62 dd bd aa fd 14 bf 03 41 a3 bd
       -0.08808152 -0.10809819 -0.5819956 -0.079713844
0003b0 76 67 43 bf c8 7f 1a bf 86 c5 15 bd b3 f5 23 bf
       -0.76329744 -0.6035123 -0.036565326 -0.6404678
0003c0 4b e7 cd bd a4 6d 29 3c e7 9e 4a bd 76 7a a1 3d
       -0.10053881 0.010341082 -0.049467947 0.07884686
0003d0 e8 32 95 be df 85 f5 be 91 01 97 be 50 20 2d be
       -0.291404 -0.47953698 -0.29493383 -0.16906857
0003e0 c0 71 ec bd 95 71 ad bd f5 fb 00 be 0b 84 f5 bd
       -0.115451336 -0.0846893 -0.12596114 -0.11988076
0003f0 03 3a 15 be 37 c4 7d bd 06 a1 2a 3d f1 cc e7 3b
       -0.14572911 -0.061954703 0.04165747 0.0070739915

fc3.weight f4 [2, 512]
000000 e2 cd 9c bc 26 19 fd 3a 67 3c 90 bc d3 80 cd bf
       -0.019141141 0.0019309863 -0.017606927 -1.6054939
000010 98 aa 41 bf 09 94 8b 3b 73 e5 3f bf fc 99 37 bc
       -0.7565093 0.0042595905 -0.74959487 -0.011206146
000020 cd 4a 22 3d 5d 23 72 bb 4b 19 2d 3e 65 02 22 bf
       0.039622117 -0.0036947348 0.1690418 -0.63284904
000030 39 81 0a bf 7b 63 b1 bc bc 80 55 be 02 7f 2f bd
       -0.5410343 -0.021653881 -0.2084989 -0.042845733
000040 20 93 9e 3e c9 a8 c3 3b 5b 97 93 be 9c 34 82 3c
       0.30971622 0.0059710485 -0.28826413 0.015894227
000050 e2 72 8e bc 89 8e ca bd 5b 71 8d 3e e4 0f a1 bb
       -0.017388765 -0.09890468 0.27625546 -0.0049152244
000060 14 96 d9 bc 6c cb 62 bf f1 ba f8 3e 1c c7 9b 3e
       -0.02656082 -0.8859165 0.48580125 0.30425346
000070 08 04 c4 3f 1f d9 e9 3b dd 9c 06 bc b9 03 2e 3e
       1.531373 0.0071364786 -0.00821611 0.16993608
000080 3b 06 80 bb 04 2f a3 bc 70 a8 f5 be 8f 8f 04 3d
       -0.0039069927 -0.01991988 -0.4798007 0.03236347
000090 78 89 35 3f 78 ab 97 be bc ed fa be e2 9f 35 3d
       0.70912886 -0.29623008 -0.49009502 0.04434193
0000a0 9c 77 8f 3c 62 8e 92 bc 76 6a d2 3e 57 ac 46 bc
       0.017513089 -0.017890159 0.41096848 -0.01212605
0000b0 00 2c 8c be 5c b5 ac bc 5f 9c 8f 3c 94 ef 18 3c
       -0.2737732 -0.021082573 0.017530618 0.009334464
0000c0 53 b5 8b 3c 4d 15 86 3c 44 c8 a0 bc e9 45 11 c0
       0.017054236 0.016367579 -0.019626744 -2.269892
0000d0 be a7 cb bc 05 d3 4f 3c fd b3 b9 3f 15 ad 6e 3f
       -0.02486026 0.012684588 1.4508053 0.9323285
0000e0 8b a5 b4 bd de 9c 67 bf 4f 5d 5f be 6f 77 ba bc
       -0.08820637 -0.90473735 -0.21812938 -0.022762029
0000f0 76 e7 fb bc 9a 01 72 bf 4b 6a b3 bf 5d 04 ef 3e
       -0.030750018 -0.94533694 -1.4016813 0.46683016
000100 1a 2b ba 3a 3a 44 76 bf d4 b7 ab bf 09 c5 a0 3c
       0.0014203519 -0.96197855 -1.3415475 0.019625204
000110 f0 60 a6 bc 69 fb 1a bc 7e b4 0e 3c d1 d2 a3 bc
       -0.020309895 -0.009459355 0.008710025 -0.019997986
000120 f6 d0 e1 3e 5d cd 0b 3d df 04 b6 3e dd 87 92 bb
       0.44104737 0.034131397 0.3555059 -0.0044717626
000130 ea 32 eb 3b 3b e3 32 bf c4 00 84 bf 65 74 eb 3e
       0.0071777003 -0.69877976 -1.0312734 0.4598724
000140 46 a8 83 3d 56 1e 89 3c d3 66 b2 bc 3d fd 91 bc
       0.0642858 0.016738098 -0.021777546 -0.017820949
000150 51 af 8e bc 58 9e 27 bf 40 e6 b0 3c a4 5b ba be
       -0.017417582 -0.6547599 0.021594167 -0.3639804
000160 f5 38 3a be 97 07 be be 1e 46 d8 3f 02 c5 ff be
       -0.1818579 -0.37115166 1.6896398 -0.49954993
000170 d0 d4 9c 3b 8d 19 19 3d 19 a2 e5 bc 5b 54 f1 3e
       0.0047861114 0.037377883 -0.028031396 0.4713467
000180 8f f4 a8 3e 13 ab 87 3b 9f 05 d7 3c 1d 74 4c 3d
       0.32999083 0.0041402667 0.026247798 0.04991542
000190 e8 10 8f 3b 21 62 9a 3b 22 70 4d 3c c1 8e 53 be
       0.004366029 0.004711405 0.012538942 -0.20659925
0001a0 fb be 1c 3c 14 7e 90 bc 45 db 81 bf 72 6b b2 bf
       0.009567018 -0.017638244 -1.0145041 -1.393904
0001b0 64 bb be be ad 84 32 ba 01 bf 79 3f 0b 24 b2 be
       -0.37252343 -0.00068099314 0.97557074 -0.34793124
0001c0 7f 49 ad 3c e6 8b 48 3f 3c 6f 84 bb a8 97 ba bc
       0.02115321 0.7833847 -0.0040415805 -0.022777393
0001d0 64 94 7e 39 6a 2e a8 3c 3f 52 41 bd 60 86 c6 bc
       0.00024278607 0.020529944 -0.047197577 -0.024233997
0001e0 97 18 46 bc 4c 62 fb 3b 7d fb d4 be 7f ab 73 3b
       -0.012090824 0.00767163 -0.4159812 0.0037181077
0001f0 88 54 c2 3b 67 b7 b1 3e d5 e3 8c bb b6 eb b4 ba
       0.005930487 0.34710237 -0.0042996206 -0.0013803157
000200 25 78 9c 3f 4b a1 3e bf 51 1b 6a bb 22 0a 6f bf
       1.2224165 -0.74464864 -0.0035721848 -0.93374836
000210 ee ad e6 bb 53 67 37 3c 72 0d 9a 3b a9 e9 b5 3b
       -0.007039777 0.011194068 0.00470131 0.005551536
000220 98 8f af bc a7 30 a6 40 95 96 a5 bc 04 d4 12 3c
       -0.021430776 5.193439 -0.020213405 0.008961681
000230 7b 61 7a 3f 83 f5 91 bf dd 27 c4 3f 02 25 6f 3b
       0.97804993 -1.1403049 1.5324665 0.0036490564
000240 da 04 d2 3c 85 98 ab bc d8 5c 80 bc 66 7c f7 3b
       0.025637079 -0.02094675 -0.015669271 0.0075526712
000250 67 8d 8d 3c 05 98 81 bf 7e a0 a7 3f fb 44 b3 b9
       0.01727934 -1.0124518 1.3095853 -0.00034192935
000260 d5 3b 7e 3c eb ff 25 bc b6 ad 83 bc e5 a5 15 bf
       0.015517195 -0.010131816 -0.016074043 -0.5845626
000270 54 07 4e be 6a 66 13 bc 9a 56 3d bf 9c 8f 7f bf
       -0.20119983 -0.008996585 -0.7396027 -0.99828506
000280 69 7d a8 3b 22 03 a9 bd 05 0b 42 3f 1c db 2f 3b
       0.005141903 -0.08252551 0.75798064 0.002683348
000290 89 c6 34 3d 03 0e 65 bf 83 90 76 bc f2 ac 64 3e
       0.04413465 -0.89474505 -0.015049103 0.22331598
0002a0 88 fd 4b bc 5e cf bf be ac c4 15 3f e8 94 8d bc
       -0.012450583 -0.37462896 0.5850322 -0.017282918
0002b0 72 01 67 be b2 2b e9 3a a5 6b 2a 3c a2 df 34 3a
       -0.22559145 0.0017789511 0.010401641 0.0006899779
0002c0 d5 ba d1 be b7 d3 da 3b 60 89 6e bf e8 ec 8c be
       -0.40962854 0.0066780704 -0.9317837 -0.27524495
0002d0 4c 12 3d 3b f6 68 71 3b 02 c3 87 3f 31 fb bf bc
       0.0028850017 0.0036836243 1.0606387 -0.023435207
0002e0 f7 ae 0b bf de bb b3 3c bb 2d 47 bc bc 4e 80 bf
       -0.5456385 0.021940168 -0.012156899 -1.0024028
0002f0 62 4f 01 3e 6c 59 dc 3e 1f d3 2c be 73 b0 d7 bc
       0.12627938 0.43036973 -0.16877411 -0.026329255
000300 99 73 ab 3f 1a e1 18 bf bc c0 3a ba 5e 89 17 3c
       1.3394653 -0.5971848 -0.00071240566 0.0092490595
000310 8f e3 23 3f a6 97 da 3b 4f 32 fa bb 21 6c 5f bf
       0.640191 0.00667091 -0.007635392 -0.87274367
000320 fa a1 38 bf fe 48 8d bf 10 bb 83 bc 53 1f 7d bf
       -0.72122157 -1.10379 -0.01608041 -0.9887592
000330 2d 94 ef 3e f2 a0 42 3f 62 17 0c bf 0f bd 18 3f
       0.46792737 0.76026833 -0.5472318 0.5966348
000340 20 e8 dc 3b 8f e9 a7 3c 2a 8b 80 bc 27 74 fe ba
       0.0067415386 0.020497112 -0.015691359 -0.0019413278
000350 d2 e7 43 3c 7a b5 22 3f bc e0 3b bf 73 44 88 bd
       0.011957126 0.6355816 -0.7338979 -0.06653681
000360 35 e0 b3 bc dc 7d 54 3f e3 cf b7 bc 86 ec e2 bb
       -0.021957496 0.83004546 -0.022437995 -0.0069251684
000370 15 c5 df bd 73 d3 69 3e 5a b1 dd 3b b3 b4 2f bb
       -0.10926262 0.22834568 0.0067655267 -0.0026810586
000380 23 10 b0 3f 99 dc 89 be 33 5d a1 bf 36 e4 cf 3c
       1.3754925 -0.26926115 -1.2606567 0.025377374
000390 01 7b 1a 3f 95 ca e5 bb a7 f5 76 bc 1b d3 89 bb
       0.6034394 -0.007012675 -0.0150732165 -0.004206074
0003a0 7c d0 95 3b 56 eb 96 3e 38 c0 55 3f 83 d8 d7 3b
       0.0045719724 0.29476422 0.8349643 0.0065870895
0003b0 da 07 92 be b9 1a 7f be 38 b2 0c 3c fd 07 00 3f
       -0.28521615 -0.24912538 0.008587413 0.5001219
0003c0 c3 24 a0 bb 5f ac a1 3c ab 6c 89 3c b1 e7 e5 3e
       -0.004887195 0.019735513 0.01677545 0.4490333
0003d0 93 6b 08 3e f5 b1 57 bf 49 c2 72 3f 20 20 16 3d
       0.13322286 -0.84255916 0.94827706 0.03665173
0003e0 78 c5 c1 bf b2 67 fe bb 05 b8 5f 3c 85 13 99 bb
       -1.5138388 -0.0077638263 0.0136547135 -0.0046715164
0003f0 1d 6b 92 bc e7 d9 83 bc f3 f3 89 bc 54 3a c3 bc
       -0.017873341 -0.016095115 -0.016839957 -0.023831524

fc3.bias f4 [2]
000000 6e 97 68 bf cb b3 9f 40
       -0.90856063 4.9906974
