checkpoint_p1.pth (torch_old, 144714 bytes, 6 tensors)

fc1.weight f4 [64, 24]
00000000: 2c01 bbbd 654b 1640 b870 5abd 8715 b93b
00000010: f477 8e3e fe01 a73e 0e58 4635 8d75 023e
00000020: 1004 88be 1247 2040 9a0f 32be 2d6b 83bd
00000030: 891b b13e 806c 82be 3290 cfbd 0418 5bbd
00000040: 5b72 b2be d798 4b40 bcb1 89bc f189 d53e
00000050: 1c9c 413f 9c86 05c0 1724 ecbc b281 f73e
00000060: fe1f 6e3e 7d50 3d40 b3cd 693d f252 04b7
00000070: 8dd9 dc3e 6875 573c 6070 c9bd 0f2e a13d
00000080: 5848 f43c 6927 3c40 e72b 4cbd 761a 31be
00000090: 6af0 023f c424 64bf a4dc fe3c 0db1 53be
000000a0: 7dc1 f9bd 3777 4340 3333 343d 1213 27bf
000000b0: 73a6 883f 65eb 2ac0 7cd5 923d 6db6 2dbf
000000c0: 2ab3 51be cd57 0d3f f83a b4bc 887f 353e
000000d0: cbc8 72bf 7f8e 623f 1c10 1dbd 3b59 883e
000000e0: eb9d 96be 33fd 6d3f 3b5f 953d 0cd8 5e3f
000000f0: 1014 bb3d bc0d 1ebf ed4d 773c 8784 373f
00000100: 00db 33be 4512 6a3f 4a8a 983b 9982 8cbf
00000110: f850 923f d3f2 2fc0 94c6 863d b839 61bf
00000120: e49e 7e3c 4bf2 d03f 043b 4cbd ea55 623e
00000130: f76e 893e 5216 32bf d93a a8bd 0517 ad3e
00000140: 3a00 b0be b9e4 e33f a069 9bbd af40 123f
00000150: 9ae5 0d3e d62a d9bf a800 8e3c ebe1 2c3f
00000160: 3093 4fbf 87d1 873f cc25 ecbd 9f9b bcbe
00000170: 8fc1 453f c5bb 83c0 1008 a6bd 0777 79be
00000180: e939 463e 3a2a e73d ee6e c43d fbe1 b63e
00000190: 431b d83e 8b81 cdbe c5d3 b9bc 6d47 f83e
000001a0: cf76 133f dfd3 033f 3be0 503e c5b6 ed3e
000001b0: 4c03 c6bb 0340 01bf bcc1 af3d 1f33 213f
000001c0: 94c2 163f 9455 18bf fe83 57be dca5 c4bf
000001d0: d787 1bbe 80c2 2a3f 1396 71be a86b bcbf
000001e0: 9b06 843f c747 b3be 12a6 58bc c812 54bd
000001f0: 42b4 8fbf f4a8 833f fd04 943d 36dd e0bd
00000200: 0fec 813f be63 e9be e704 703d b3d1 f6bd
00000210: c48a 72bf ebce f33e 45fa 253e 80d2 cdbd
00000220: 4e01 913f d6a5 95be c11e e5bc 0341 4b3e
00000230: 5f18 a3bf c8d2 e6bf ecc6 2d3e c08a 113e
00000240: 91a7 8a3d 04da 0f3d c304 6639 296f ebbd
00000250: c16b c6be d287 39c0 45da 1dbd 7175 a3bd
00000260: 8cf3 983e 5de0 babd 83bf 923d 2ea6 ddbd
00000270: 4828 33bf 02f2 69bf 4ac9 bfbd 7725 04be
00000280: 8bf7 433f 83a9 14bf 54f8 043d 7050 5bbe
00000290: 73f0 25bf 9f02 3040 5d75 adbb 5cdc 76be
000002a0: 9720 e13f a5f2 973e edcf 58be a8cf 1abf
000002b0: 4ba3 7b3b 2eac ce3e 8a66 bbbe 3c8e 1dbf
000002c0: 4e86 d63f 436a 043f 0b23 dcbc 18ff 0e3d
000002d0: 8d4b 923e 4c1d 18be 5889 53be 3352 80bd
000002e0: 4aa1 c13f 8d93 4b3f 17c0 053c 5066 ff3e
000002f0: 0335 593f 7521 36c0 c38a fd3d 134c 2a3f
00000300: 95d5 94be d39b b93f 11ca b0bd 938d e63e
00000310: f045 04be a139 afbf 410f d8bd 18cd be3e
00000320: ee90 a3bd 6faa 0040 6e50 1a3a 77bf 983e
00000330: 82ef acbd 46a4 efbf efba b03a 420c 863e
00000340: 5231 f53d 800d f53f e4e9 193e e1a4 65bf
00000350: 7876 64be 69c2 aabf c537 4abd 7aaf 47bf
00000360: 2168 2dbe a3a8 b33f 4ba7 81bc bdb1 083d
00000370: c044 0640 ad02 a7bf a059 6e3d b61f 833c
00000380: 37f2 103d 8b96 c53f af33 dd3d 7880 1c3e
00000390: d147 043f 69e7 3cbf da7e f6bc 576f 3f3e
000003a0: b16b 573e 52b2 cc3f 3bf8 d33c b8ee 2e3e
000003b0: 4b0c b1bf 4fce 323f b3dd 21bd 60a0 903d
000003c0: 5181 3040 d11f 5a3e 88e4 29bc 6d74 d03e
000003d0: 4307 523f f59b eebf 5fa7 233d 5cb1 803e
000003e0: 1fdc 093f a026 b3be 6f14 8d3e c058 663c
000003f0: e4c1 a23c c2c1 f03e aa72 273e 1381 fbbd
-0.09131083 2.3483517 -0.053330153 0.005648318 0.27825892 0.32618707 7.3888884e-07 0.12740155
-0.265656 2.5043378 -0.17388764 -0.064169265 0.3459132 -0.25473404 -0.10134925 -0.0534897
-0.3485287 3.1812036 -0.016808383 0.41706803 0.7562883 -2.086341 -0.028825803 0.48341137
0.23254392 2.9580376 0.057080936 -7.887125e-06 0.43134728 0.01315055 -0.09835887 0.07870113
0.029819652 2.9399054 -0.049846556 -0.1729525 0.5114809 -0.891186 0.031111069 -0.20673008
-0.12195108 3.0541513 0.04399414 -0.65263474 1.0675796 -2.6706173 0.07169625 -0.67856485
-0.20478502 0.552121 -0.022000775 0.1772443 -0.94837636 0.8849868 -0.03834544 0.26630577
-0.29417357 0.92964476 0.072935544 0.8704841 0.09134686 -0.61739707 0.015094263 0.71686596
-0.1756401 0.9143413 0.004655157 -1.0977355 1.143096 -2.7491958 0.065808445 -0.87978697
0.015540812 1.6323942 -0.04986097 0.22103086 0.26842472 -0.6956531 -0.08214349 0.33806625
-0.34375173 1.7804176 -0.07588506 0.5712995 0.13857117 -1.6966197 0.017334297 0.67532223
-0.81083965 1.0610818 -0.11530647 -0.3683748 0.7724847 -4.116671 -0.081070065 -0.24361812
0.19358028 0.11287351 0.09591471 0.35719284 0.422083 -0.40137896 -0.022683987 0.48491994
0.5760316 0.51495165 0.20398037 0.46428505 -0.0060428735 -0.504883 0.08581874 0.6296863
0.5889065 -0.5950558 -0.21046445 -1.5363116 -0.15188538 0.66703033 -0.23592405 -1.4720354
1.0314516 -0.350157 -0.013223188 -0.051775724 -1.1226885 1.0285935 0.07227514 -0.10979693
1.0150164 -0.4558391 0.058598425 -0.12051716 -0.9474299 0.47618803 0.16208751 -0.10049915
1.1328523 -0.29228085 -0.027968766 0.19849019 -1.2741812 -1.8033075 0.16970414 0.14213085
0.06770242 0.035120025 0.00021936283 -0.114958115 -0.38754085 -2.8989148 -0.038538236 -0.079813845
0.29873312 -0.09124825 0.07165434 -0.10822712 -0.6998334 -0.913849 -0.09364565 -0.12904917
0.76549596 -0.58071154 0.032463387 -0.21417403 -0.6482002 2.75016 -0.005293532 -0.24107498
1.7588071 0.2967731 -0.21173067 -0.6047311 0.003839689 0.40365738 -0.3660167 -0.6154516
1.6759737 0.5172464 -0.026872179 0.034911245 0.28573266 -0.14854926 -0.20657861 -0.06265678
1.5127347 0.7952202 0.008163474 0.49882746 0.84846514 -2.845792 0.12379982 0.6652233
-0.290692 1.4500679 -0.08632291 0.45029888 -0.12917304 -1.3689462 -0.105497845 0.3726585
-0.079866275 2.0104024 0.0005886619 0.29833576 -0.0844412 -1.8722007 0.0013483445 0.26181227
0.11972298 1.9144745 0.15030628 -0.8970471 -0.22310817 -1.3340579 -0.049369592 -0.7800213
-0.16934253 1.4035839 -0.015826842 0.03337263 2.0979462 -1.3047692 0.05819094 0.016006332
0.035387244 1.5436567 0.108008735 0.15283382 0.51672083 -0.73790604 -0.030089784 0.18694817
0.21037175 1.5991919 0.025875201 0.17083251 -1.3831877 0.6984605 -0.03951807 0.07061839
2.7578928 0.213012 -0.0103694275 0.40713826 0.8204233 -1.8641344 0.03995454 0.25135314
0.53851503 -0.34990406 0.27554652 0.014059246 0.019867845 0.47022825 0.16352335 -0.12280478

fc1.bias f4 [64]
00000000: 83ac 5b3f 6121 64be 580f 8f3e 73e3 333f
00000010: 4471 98bd ae5b 1640 3aae c2bf 48ef 39bf
00000020: d75e 8dbe 2011 67bf 660d fdbe a7f7 a83f
00000030: f3fc 13bf 14e8 cfbc 44bf 0b40 594f 9a3f
00000040: a8ea c3be 0a2b a4bf 36b6 1abf 05cb f8bf
00000050: 7c32 1b3f e427 df3e 6e6a 8abf 543a f4be
00000060: 616b 713f e2d9 6ebf 5a82 0fbf 0edd eabe
00000070: cf23 3d3f 73db a83f 9a75 cfbf 04f2 47be
00000080: 0a3c 983f 6d55 b83e 0cf7 9ebf 3051 d0bf
00000090: 6185 d83e bc47 e6be bbb9 0740 7600 823e
000000a0: d81d 0cbf fdd6 f0be 92c6 6d40 d1d4 49c0
000000b0: 1d3a 273f 661a 52bf 97af a3bf 3214 543f
000000c0: bc6b a1be 78b5 813f c9c7 1ec0 9712 c83e
000000d0: 9be9 00bb 8e40 d2bf dc1d d7bf b40c 99be
000000e0: 9816 2abf 595c 1bbf a97d a1bf 326f a03f
000000f0: 7fe4 823f 8da2 e4be 1917 afbf 8704 75bf
0.85810107 -0.22278358 0.27941394 0.70268935 -0.07443479 2.3493457 -1.520942 -0.7263074
-0.2761142 -0.90260506 -0.49424285 1.3200577 -0.57807845 -0.025379218 2.183549 1.2055465
-0.38264966 -1.2825634 -0.6043428 -1.9436957 0.6062391 0.43585122 -1.081373 -0.4770075
0.9430447 -0.9330121 -0.56058276 -0.45871776 0.73882765 1.319197 -1.6207764 -0.19525915
1.1893322 0.36002675 -1.2419143 -1.6274776 0.4228926 -0.44976604 2.120711 0.25390977
-0.5473304 -0.47039023 3.7152448 -3.1536143 0.6532305 -0.8207153 -1.2787961 0.82843316
-0.31527507 1.0133505 -2.480944 0.39076683 -0.001967049 -1.642595 -1.6805987 -0.29892504
-0.66440725 -0.60687786 -1.2616473 1.2533934 1.0225981 -0.44655266 -1.3678924 -0.95710033

fc2.weight f4 [512, 64]
00000000: be17 47be c5ac fe3c 7af4 adbc 4eeb 173f
00000010: 84c3 0b3e e67c 6bbf f2bc ffbe 78e4 adbe
00000020: 09da 133d 9e12 603c 74e8 f5be d6c9 74bd
00000030: 1451 04c0 4acc b1be e911 d4be 2a48 83bf
00000040: 474b 2bbf 9c09 d2be 916d 3cbf cd5e bcbf
00000050: 49fa 04be 0074 97be e3b8 1a3f 1474 7fbe
00000060: 8397 6ebe 685b 31bf d986 9cbe 6b90 ffbe
00000070: 577e 6cbe 0729 40be 72f7 f03e fad9 5ebf
00000080: 710b 33bd 1132 3bbd 98f6 13bf 7d4e 243f
00000090: 1cc9 453d 61f8 b7bd 9c25 683e 567b 0dbe
000000a0: 95df 70be 7757 64be e14e 62bf ea8a 3b3e
000000b0: a170 6bbf dd88 13be 945b 8f3e 4959 b4be
000000c0: 7978 023e 37c5 00be 6bf7 b2be b50b 3e3f
000000d0: 31ed 1fbf adb2 06bf bbb6 9b3e 66bc f23c
000000e0: fe9e db3e 2daa f3be c923 0e3f acf4 a3bf
000000f0: 4153 e93d d8f0 f5bd 258e 2b3f 72ec b8be
00000100: ece3 12be 2fb7 81bd 1fdc 3dbd ada9 35bd
00000110: 9b9c 23bd 49db 18bd 8241 b5bd 6b97 c0bc
00000120: ab70 b6bd a08e 57bc 459c 2fbd b0ec 57bc
00000130: b901 debb 2fea bbbd 3ed2 f0bc 9e25 a63c
00000140: 3eec 493c 87c5 77bd 4fe2 9dbd aeb4 09bd
00000150: 1dbc 1c3c dce7 1dbd 22c9 13bd 6560 b3bc
00000160: 052d a0bd bdcb 45bd a8e7 4fbd 0e44 93bd
00000170: 3916 1bbd cc4f 96bc b07c adbd f3c8 87bc
00000180: f6be 9c3b da97 45bd 3ac7 00be 1f36 203b
00000190: 60bd c3bc 4958 37bd 6f35 4cbd 306c a6bc
000001a0: d33d 11bd 8dfe 16ba ae1c a83b c7a5 25bc
000001b0: e4ea e2bc 1420 9bba 7d0f 9abc 6436 4abc
000001c0: 1b98 c4bc eff5 1ebd 3621 9d3c 6e78 04bd
000001d0: 77d3 eabd 5ca5 c8bc 66e8 69bd ba42 563c
000001e0: b259 0dbd 6704 36bd 124b febd 1bfa 3cbd
000001f0: b396 19bd d0df c53b 5f2a ca3c 9654 00bc
00000200: 6ab5 8ebe 1ec4 063e 619a 56bf a919 d73d
00000210: 6179 b2be 8617 73bf e941 19bf 31bd 6f3d
00000220: 4049 1e3f aed7 86bd 354b 143d 6856 e3be
00000230: 0ebf b73e 1e6f 67bf 68ec f9be 7877 a5be
00000240: 5971 85be fbaf af3e 51dc f63e 3622 973d
00000250: 9566 afbd 4fc0 3fbf 1bfc a23e 2957 11bf
00000260: 09e5 5cbf 004a 233f 0888 c0be 7b52 a7bd
00000270: 1c54 aebe 7cfb a8be 0e6b 86be d048 b23e
00000280: 2cef 203e b9ef 6d3e cc7c e13e c80e b5be
00000290: 4efb 56bf abed 283f 82f7 c43e 5d84 9abf
000002a0: 7fa8 a83d 97a8 083f b170 5dbf f3bc 8ebf
000002b0: 73ea e03e 3295 293e cea2 093f 46c4 6dbe
000002c0: cb2c d83d d643 d3be 1717 d8be c0ee 36bf
000002d0: 70d8 6cbf 380d 1cbb 2354 803f c89a cebd
000002e0: 0cbb 6e3e fd5f 07be 4d5b bebe f2ed b43c
000002f0: d765 c33c 8b18 4bbf f95e 763c a2e5 dc3e
00000300: f188 333d 4bb4 9abe 1057 993e 7a1e f4be
00000310: c86d 593f f8ca 6ebf 0415 023f dd68 acbe
00000320: 8d2a e9bd ae0b a0be 41c1 62bf 2503 e6be
00000330: ab6b a03f 8c55 35bf 57f2 43bf 4075 a3be
00000340: ef5e efbe 8a03 14c0 fbac 96bf e74d c8bf
00000350: 5a34 93be 6729 4fbe 6e14 febe 35c0 bebd
00000360: aa5a 25be 03cb b53e 1a9a 49bf 3a78 94bf
00000370: d2a9 41bf ca07 afbf c954 3ebf df84 953e
00000380: 8331 b5be 7563 a7be 2162 4dbf 6f9a 823f
00000390: 4a31 18bf 0236 9bbf 3e46 273f 6949 acbf
000003a0: 5d44 933d 806a 94bf 0f14 32be 24e5 28c0
000003b0: bcc6 f9be a777 b6be e131 783d 29e0 96be
000003c0: c2ba 27be e987 25bf 58e0 89bf dcec 053f
000003d0: f39f 243e 0c99 31bf 9ade 5cbe 8f0a 47bf
000003e0: 80ba dc3e ec7c 40bf c75e 8bbf 3a94 cfbd
000003f0: f213 3d3b 9621 eb3e 9444 e8be 23c2 4e3e
-0.1944265 0.031088242 -0.02123474 0.5934342 0.13648802 -0.91987455 -0.4994884 -0.3396337
0.036096606 0.013676314 -0.4802891 -0.0597628 -2.0674486 -0.34726173 -0.41419914 -1.0256398
-0.6691174 -0.41022956 -0.73604685 -1.4716431 -0.12986101 -0.29580688 0.60438365 -0.24946624
-0.23299985 -0.692801 -0.3057163 -0.4991487 -0.2309507 -0.1876565 0.47063786 -0.87051356
-0.043712083 -0.045702044 -0.5779815 0.64182264 0.048287496 -0.089829214 0.22670597 -0.1381658
-0.2352279 -0.2229899 -0.8840161 0.1831471 -0.91968733 -0.14407678 0.27999556 -0.3522437
0.12741269 -0.12575231 -0.3495439 0.74236614 -0.624713 -0.5261639 0.3041285 0.029630851
0.4289474 -0.4759077 0.55523354 -1.2809043 0.113928325 -0.12008828 0.6701377 -0.36117893
-0.14344758 -0.063337676 -0.046352502 -0.04435127 -0.039944272 -0.0373185 -0.08850385 -0.023509702
-0.089082085 -0.013156563 -0.04287364 -0.013178989 -0.0067751077 -0.09175526 -0.029397126 0.02028161
0.012324391 -0.06049111 -0.077091806 -0.033619575 0.009566334 -0.038551196 -0.036080487 -0.02189655
-0.07821087 -0.048290003 -0.050758034 -0.07190715 -0.03786299 -0.018348597 -0.08471048 -0.016575312
0.0047835065 -0.04824052 -0.12575999 0.0024446321 -0.023894012 -0.04476193 -0.049855646 -0.02031526
-0.03545935 -0.0005759977 0.005130372 -0.010110325 -0.027699895 -0.0011835122 -0.018806214 -0.012342069
-0.02399831 -0.03880876 0.019180875 -0.032341413 -0.11466115 -0.024492912 -0.057106398 0.013077432
-0.03450937 -0.044437792 -0.12416662 -0.046136957 -0.037497234 0.0060386434 0.024678407 -0.007832667
-0.27872783 0.1316075 -0.83829314 0.10502941 -0.3485823 -0.9495777 -0.59866196 0.058530036
0.6183052 -0.065841064 0.036204536 -0.4440186 0.3588795 -0.90403926 -0.48813176 -0.3231771
-0.2606304 0.3431395 0.48214963 0.07379572 -0.08564488 -0.74902815 0.31832966 -0.5677362
-0.8628698 0.6378479 -0.37603784 -0.08170029 -0.34048545 -0.33004367 -0.2625355 0.34821177
0.15716237 0.23235978 0.44040525 -0.3536284 -0.8397721 0.6598765 0.38470083 -1.2071644
0.08235263 0.5338225 -0.8650008 -1.1151413 0.4392887 0.1656082 0.53764045 -0.23219404
0.105554186 -0.41262692 -0.42205116 -0.71458054 -0.9251776 -0.002381159 1.0025676 -0.10088116
0.2331354 -0.1322021 -0.37179032 0.022086117 0.023852272 -0.79334325 0.015037292 0.43143946
0.04383177 -0.30215678 0.29949236 -0.47679502 0.8493314 -0.93278456 0.5081332 -0.33673754
-0.11385069 -0.3125891 -0.8857613 -0.44924274 1.2532858 -0.7083366 -0.76541656 -0.31925392
-0.46752116 -2.312716 -1.177154 -1.5648774 -0.2875088 -0.20230637 -0.49624962 -0.09314004
-0.16147867 0.35506448 -0.78750765 -1.159919 -0.7564975 -1.3674252 -0.7434812 0.29202935
-0.35389337 -0.32693067 -0.8022786 1.0203379 -0.5945021 -1.2125857 0.65341556 -1.3459903
0.07190774 -1.1595001 -0.17390464 -2.6389856 -0.48784435 -0.35638162 0.060594443 -0.29467896
-0.16379836 -0.6466051 -1.0771589 0.52314544 0.16076641 -0.69374156 -0.21569291 -0.77750486
0.43111038 -0.75190616 -1.0888299 -0.10135694 0.0028851 0.45924062 -0.4536482 0.20191245

fc2.bias f4 [512]
00000000: 328e 2abf f8cc 39be 5507 6e3e eb3d 32bf
00000010: 2fb8 8b3e 8e70 ef3e 379c 84bc bfe0 25bf
00000020: 76ea 34bc fa8c d3bd 092a 9abe 4072 26bd
00000030: 8fdc c2bd 69b4 8cbf b4a8 f6be f34f 9dbe
00000040: 8360 e9be 2806 5dbd b431 22be 3958 9bbd
00000050: bfcf 18bf 31ff 9bbe e65b dd3c 5af4 4dbf
00000060: 96a1 4ebd 70cd 33bf d5b8 4abd 39d3 11bd
00000070: e9be 4dbf a8b4 98bf c1f1 a4bd ca4e 96bf
00000080: 11e6 cc3c 2edf 17bd 4d32 e1bd 2a61 e4be
00000090: a7bd e2bf 442b 25be d19b 103f f8b6 dabd
000000a0: af31 01be 9e8d f3bd 5aad 03be c31d 2bbe
000000b0: b85b 0f3f 628e d3bd 116f 64be 331f 36bf
000000c0: a154 67be fdf6 fabe d1a6 8f3d 61f0 54bf
000000d0: 2421 78bf 8801 c5be 2752 81be 9795 24bf
000000e0: 56f9 0dbe 9c02 9cbe 1e5e a5bf 4864 09bf
000000f0: 88b8 b53e 813e e2bd 7e8a a6bc 2252 87bc
00000100: ec50 11bf c828 95bd 2b74 8ebf c2f8 8a3a
00000110: f057 05bf 18aa f9bd e4ce 11be 6506 24be
00000120: dddf 323d 5ca7 84bd bb05 c7bc f55a e33e
00000130: 8cb8 773e e269 f1bc 6908 22bf 6dbe 45bf
00000140: c405 dfbf 8778 c9be 8cfc f23d 9610 99be
00000150: 023e d93d 253b 9cbe dcb1 adbf b25d 54bd
00000160: 74eb 1fbd 3fcc ebbd c7e0 50be 0c82 15bf
00000170: 9585 c5bd f450 eabd dd5a 11bd cf47 5e3d
00000180: 8fa4 20bd 3081 9fbe b498 59bf 5a72 04bf
00000190: b6eb 82be 66e4 23be 1d96 333d e040 80bf
000001a0: d9f6 2dbf 341f 0ebf 72a9 38be 5783 a33d
000001b0: d277 963e 79dc 16bf a0e6 25bf 25fd 62bf
000001c0: bdc9 8dbe e6a4 813c a371 35bf 9f11 65bf
000001d0: db12 4abe 53b3 8b3e 7391 93be 93a6 7dbf
000001e0: 5735 c1be c459 04bf 08e2 85bf 5a15 0fbe
000001f0: 6ae5 40bf c5ab 11bf 392a 833c aa75 d5be
00000200: 36ea 66be 661e 6bbf ae6d 09be 1bb4 b0bf
00000210: 0567 5fbf 2b0c 74bf f33f a03e 3936 f33c
00000220: 12ac 09be 0939 4b3e f9d0 67be 0026 31bf
00000230: ae6f 363d e4f8 2dbf 2f50 783d bba5 91be
00000240: 2e2c 5b3d 420f 2ebd 84e1 20bd bba1 57bc
00000250: e750 393e 9b43 823d 5c93 3b3e 9665 57be
00000260: e36e 0dbf 4fed 14be 4239 99bf 317e 3ebc
00000270: 3871 88bf 68fa 093e 9203 20be b412 f7bd
00000280: c9b3 10bf 3271 dcbe 1cb1 b9be 8690 e1bd
00000290: 85ee a1bf fd51 47bf cf0d 8abf 8abd 25bf
000002a0: ab6b 06bf 9499 94bd f2de 24bc 8314 2ebe
000002b0: 4845 09be d3d7 bfbd c29b 67bf b46d ddbe
000002c0: 711f 7a3d 2b22 ecbd 9154 a63d f51b af3e
000002d0: 90fa 72bf 2981 363e 80ae 9fbd 4cb7 88bf
000002e0: 7efd 11be 8b3e a3bb 5713 91bf 6028 89be
000002f0: f8e4 593e 8378 bf3e 8ba6 b6bc 3f39 81be
00000300: 9689 4abf 6835 3ebf 7a82 ebbd 7e95 abbe
00000310: 6937 b4bd 50bd 12be 8736 05be 5388 08bf
00000320: 86b2 98be c4c3 6abd 0532 e5be b426 2bbe
00000330: 76be 2bbf d910 93bf 603a 87bf 161a 8bbf
00000340: 3d3b 313d 46ba f9be cfea 18be 9fcf c83d
00000350: e886 53be d3e8 81bf c511 03bd 20a0 9fbd
00000360: e7f8 96bd 656b b8be 90e4 7bbf e83b 83bf
00000370: c484 28bc a53e a3bf 6d10 d2be eef6 173d
00000380: d7c6 2abe 595b 51ba cca0 b2bd f9b1 663b
00000390: 2a52 76be 3fc2 203f c02a 80be 1367 dcbd
000003a0: 7e19 e6bd 3f1b e4bd 7cc3 1dc0 9491 8bbd
000003b0: 1197 5d3e 3805 5c3d 59e2 2b3f 880b 14bf
000003c0: 5996 573e 0a3d 0cbf 3530 b83e 5a09 94be
000003d0: 35f8 bebf 1219 b1be 6a88 edbe 7fba c1be
000003e0: efde 79bd ee48 4c3c a70f aebd b2fc ecbe
000003f0: 1a52 1dbf 0f65 dbbd defc f9be d070 61bf
-0.6662322 -0.18144596 0.23244984 -0.6962573 0.27288958 0.4676556 -0.01618777 -0.6479606
-0.011042228 -0.103296235 -0.30110195 -0.0406363 -0.095147245 -1.0992557 -0.48175585 -0.3072506
-0.45581445 -0.05396095 -0.15839273 -0.075851865 -0.59691995 -0.30468133 0.02702136 -0.80450976
-0.05044707 -0.7023535 -0.049492676 -0.03560183 -0.8036943 -1.1930132 -0.080539234 -1.1742795
0.025012048 -0.037078075 -0.10995922 -0.4460538 -1.7714127 -0.16129786 0.56487757 -0.1067943
-0.12616609 -0.11892246 -0.12859097 -0.16710572 0.55999327 -0.10329892 -0.22307993 -0.71141356
-0.22590877 -0.49016562 0.070142396 -0.8317929 -0.9692557 -0.3847773 -0.2525799 -0.64290756
-0.13864645 -0.3047074 -1.2919347 -0.5366864 0.3549235 -0.11047078 -0.02032971 -0.016518656
-0.567641 -0.07283169 -1.1129202 0.00106027 -0.52087307 -0.12190646 -0.14239079 -0.16018064
0.043670524 -0.06477234 -0.024294725 0.44405332 0.24191493 -0.029469434 -0.6329408 -0.7724369
-1.7423635 -0.39349768 0.11864576 -0.29895467 0.1060753 -0.30513874 -1.3569903 -0.051847167
-0.039042905 -0.11513566 -0.20398246 -0.5840156 -0.096446194 -0.11441222 -0.035487045 0.0542677
-0.039219435 -0.3115325 -0.8499863 -0.51736987 -0.25570458 -0.16005096 0.04384433 -1.0019798
-0.67954785 -0.5551636 -0.18033388 0.079840355 0.2938829 -0.58930165 -0.6480503 -0.8866752
-0.27692977 0.0158257 -0.7087652 -0.8948001 -0.19733755 0.2728525 -0.28821906 -0.990823
-0.37736008 -0.5169947 -1.0459604 -0.13972989 -0.7535006 -0.56902725 0.016011344 -0.41691333
-0.22550282 -0.9184326 -0.13420746 -1.3804964 -0.8726657 -0.95331067 0.3129879 0.029688941
-0.13444546 0.19845976 -0.2263831 -0.6919861 0.0445401 -0.679579 0.060623344 -0.28446755
0.05350893 -0.04249502 -0.03927757 -0.013161118 0.18097268 0.06360551 0.18317932 -0.21034846
-0.55247325 -0.14543651 -1.1970599 -0.011626766 -1.0659552 0.13474429 -0.15626362 -0.12064114
-0.5652433 -0.4305511 -0.36267936 -0.11013894 -1.2650915 -0.7785948 -1.0785464 -0.6474234
-0.5250804 -0.07255855 -0.01006292 -0.17000012 -0.13405335 -0.09367337 -0.9047204 -0.4324776
0.06106514 -0.115299545 0.081215985 0.34201017 -0.9491358 0.17822708 -0.07796955 -1.0680938
-0.14256856 -0.004981821 -1.1334027 -0.26788616 0.21278751 0.3739663 -0.02229621 -0.25238988
-0.7911619 -0.7430024 -0.11499496 -0.3351249 -0.08799631 -0.1433003 -0.13009082 -0.53333014
-0.29823703 -0.057315603 -0.44764724 -0.16713983 -0.67087495 -1.1489516 -1.056469 -1.0867336
0.043269385 -0.48774928 -0.14933322 0.098052256 -0.20656931 -1.0149177 -0.03199937 -0.07794213
-0.07371693 -0.36019436 -0.98395634 -1.0252657 -0.01028556 -1.2753493 -0.41028157 0.037100725
-0.16677414 -0.0007986329 -0.08722076 0.0035201295 -0.2405478 0.62796396 -0.25032616 -0.10761847
-0.11235331 -0.11138009 -2.4650564 -0.06814876 0.21639659 0.053715914 0.67142254 -0.57830095
0.21053447 -0.5478064 0.3597428 -0.28913385 -1.4919497 -0.3458944 -0.46393138 -0.37837598
-0.06100362 0.01246856 -0.08499079 -0.4628654 -0.614534 -0.10712635 -0.48825735 -0.88062763

fc3.weight f4 [2, 512]
00000000: 952c d1be 355f 703c 837e 923f 8217 9d3f
00000010: 1635 d4be 155b 64be 2f12 07bf 6c46 ac3f
00000020: afcf b0bf ff0a 343f 4579 653f 8d17 3f3b
00000030: d0c0 8ebb 3c25 0dbf 3dca e13e 9b1d 66bf
00000040: 5fbb 033f dcf0 9a3d fa7b 6cbb 68c9 ff3c
00000050: 1f25 113e a8b2 7ebf 02e5 0b3c 1efc e93e
00000060: 04ae 55bc 3fc7 623f df9f 8fbc 1947 c1bc
00000070: 1ae2 883f a336 febe b45e 0abd 2c73 123f
00000080: 3e70 a83e a21e 4f3b 8d3e 9b3c 38dc 67be
00000090: 25e3 f2be db25 083d 84e8 23bf df1d 27bd
000000a0: f5a4 6ebc a9f5 8abc 31f8 663b 1bf2 1e3d
000000b0: ef65 aabf ec9f 2e3c ec7b 95be 206f cbbd
000000c0: 3fec 5fbf c20c ebbe be1d 463f 388d 99be
000000d0: 7fa2 b5bf 9261 b73e 6c9f c83e 4ca9 f33e
000000e0: 0ff3 573c 23eb 023f c240 353e 7fe6 193f
000000f0: e4bd 73bf b545 ecbe 1d6d 2bbc df07 9dbb
00000100: 94b5 1a3e da85 a8bd 94e6 523f b205 dbbc
00000110: 9f3f 1b3f 98ce 703b 0868 613d 6cb7 29be
00000120: d5af 79bc 395e e53d 396c 993c 5a0f e7be
00000130: ed86 e0be 287e 9abc 6fed c13c ddac a4be
00000140: e124 40be 7f6f cfbe 21cd 8bbf e67c b9bf
00000150: 4a3d 313e 47dd 383f ce81 533f e708 3bbc
00000160: 56be 2abc db01 793b 3691 2c3e ecdd f2be
00000170: 4fe3 873d c8e6 5dbf 9d4b 4c3d 884b 1cbf
00000180: 1ebd 433d 5145 d83f f3c2 723f 4c9e b4be
00000190: cabd ae3c b92f 9039 5fb7 c43c 4fd2 4abe
000001a0: ebf1 563e 6046 05bf 14aa 18bd 904b 143f
000001b0: 9eda 1f3f 2294 913f c8fe 36bf 38fe d8bd
000001c0: 2546 8fbe 8063 043e e7c8 df3c f416 0b3f
000001d0: 8db4 453b ae3e 61bf 398d 25bd cdf9 96be
000001e0: 6c0d 573f 772e 11be 2ab3 db3d 1967 66bc
000001f0: 7df8 4bbe 40c8 4f3e 9cdf 9ebc 8df1 72bf
00000200: 6b0c 29bf a712 46bf b2b6 4fbc c95b 003f
00000210: 5848 57bf 84bb 49bf b230 c03e a818 81bc
00000220: d197 8dbc fed4 2e3d bf6d 89bf 4b47 a4bf
00000230: 2276 b33f 8bff 243f 7e9c 833f d3e8 b1bd
00000240: 3e91 b2bb 3cd2 2f3f acd3 22bf 5903 ee3e
00000250: a4e1 d53d e7ee a2bb f64d 51bf 46d4 2b3f
00000260: abb9 3bbf b6e2 333c 1996 c03f feb4 273c
00000270: 7a5d b7bf 25c9 ecbd b873 81bc 5060 cbbb
00000280: f0a4 063f 7639 39bd 0ebf 6b40 e8c5 a8bc
00000290: f51c ed3e 259a 613e bd04 85be 89a0 553b
000002a0: bc14 043d 5beb c6be c809 a6bc f484 a2b9
000002b0: c9ac 6bbc ec6f 9d3f e1ba 373f b686 7f3e
000002c0: 3e00 a23b 6507 96bc 9b8c 3c3c ffb3 5c3f
000002d0: c7e3 923d 897d d9be 714f 49bc a758 303e
000002e0: 9270 3cbc 3dc2 a13a 52b0 353f ed36 a3be
000002f0: a53f 913d 1043 53bf 56dd 7e3e 1b8f 353e
00000300: ef93 a83e 67f0 73be 0352 90bc 8508 113c
00000310: 1429 b5bc dd84 5f3d e6e0 0f3c c239 31bf
00000320: d9dd 1dc0 e5e2 d1bc 99f2 7f3f fea1 cdbb
00000330: dc8e d3be 390f 4bbf d582 ae3f 1fdf d2be
00000340: 54d3 933b c95b d8bc b322 6a3b 0b90 6c3f
00000350: 96e3 c2be 6cad 053f 018e 9f3e af9b 0bbc
00000360: f4cd 8bbc 42a8 853f 1d5e 71bf ba8d 8e3f
00000370: f686 813e 90b7 e13d 7604 3f3f abf4 423d
00000380: 6947 a83c cf12 513d 9ef4 973c e69c a83a
00000390: d46b 163f 7599 9bbe 5ee9 60bf 4eed 233b
000003a0: 38d6 4d3f 14a1 27bc f801 c63e eb70 893b
000003b0: ef93 9fbf c45e d73c ab94 94bd 83f5 893e
000003c0: 5473 4d3f 1c14 bd3e 9d14 b1bf eb00 96be
000003d0: 3eb9 e23e 7366 1f3f 82a9 fbbe 88b0 083f
000003e0: 7940 ecbc 0f4e e93c e451 b5bb d877 04be
000003f0: 445a 333f 06df 9f3f ee3d 4d3f 4e24 e0bd
-0.40854326 0.014671137 1.1444858 1.2272799 -0.4144675 -0.2230037 -0.5276212 1.3458991
-1.381338 0.7032928 0.8963817 0.0029158324 -0.004356481 -0.5513494 0.44099608 -0.89888924
0.5145778 0.075654715 -0.0036084638 0.031223968 0.14174317 -0.9949136 0.008538486 0.45700163
-0.013041977 0.88585275 -0.017532287 -0.023593472 1.0694001 -0.4965106 -0.033781722 0.5720699
0.32898134 0.0031603952 0.018950725 -0.226426 -0.47438923 0.033239227 -0.64026666 -0.04079997
-0.014565696 -0.016962843 0.0035243148 0.03880511 -1.3312358 0.0106582455 -0.29196107 -0.09933305
-0.8746986 -0.4590817 0.7738913 -0.29990554 -1.4190215 0.35816628 0.3918413 0.475901
0.013180508 0.5114004 0.17700484 0.60117334 -0.95211625 -0.46146932 -0.010463026 -0.004792198
0.15108329 -0.08228655 0.82383084 -0.026736114 0.60643953 0.0036744233 0.055030853 -0.16573876
-0.0152396755 0.11199612 0.018728362 -0.451289 -0.4385294 -0.018858984 0.023672787 -0.32163134
-0.18764068 -0.40514752 -1.0921975 -1.4491241 0.17308536 0.7221264 0.8261994 -0.011415697
-0.010421356 0.003799549 0.16852269 -0.47434938 0.066351525 -0.8668027 0.049876798 -0.6105275
0.047787778 1.6896154 0.9482872 -0.3527702 0.021330733 0.00027501376 0.02401322 -0.19806789
0.20990722 -0.5206051 -0.037271574 0.579278 0.6244296 1.1373332 -0.71482515 -0.105953634
-0.27983204 0.12928581 0.027317477 0.543319 0.003016743 -0.87986267 -0.040417884 -0.29487458
0.84004855 -0.14177881 0.10727532 -0.014062666 -0.1991901 0.20291233 -0.019393735 -0.9489983
-0.66034573 -0.7737221 -0.012677835 0.50140053 -0.8409476 -0.7880175 0.37537152 -0.015758827
-0.017284306 0.042683594 -1.0736617 -1.2834257 1.4020426 0.6445243 1.0282133 -0.08686986
-0.005449443 0.6868017 -0.63604236 0.4648693 0.10443428 -0.004972327 -0.81759584 0.6712078
-0.7333018 0.010979345 1.5045806 0.010236023 -1.4325402 -0.11561803 -0.01580225 -0.0062065497
0.52595425 -0.045220815 3.683536 -0.020602182 0.46311155 0.22031458 -0.25980178 0.0032596907
0.032246336 -0.38851437 -0.020268336 -0.00030998106 -0.014384457 1.2299781 0.7176953 0.24953732
0.0049438765 -0.018314073 0.011508132 0.8621215 0.07172351 -0.42478588 -0.012287007 0.17221318
-0.011501448 0.0012341213 0.7097217 -0.31877843 0.07092217 -0.82524204 0.2488912 0.17730372
0.32925364 -0.23822175 -0.017617231 0.008852129 -0.022114314 0.054570068 0.008781647 -0.69228756
-2.4666655 -0.025620887 0.9997955 -0.0062754145 -0.4131993 -0.793201 1.3633677 -0.41185853
0.0045112763 -0.026410954 0.0035726249 0.9240729 -0.3806426 0.52217746 0.31163028 -0.008521005
-0.01706598 1.0441973 -0.9428423 1.1137002 0.2529828 0.1102134 0.7461618 0.047596615
0.020541864 0.051043328 0.01854926 0.0012864142 0.5875828 -0.30390516 -0.8785609 0.002501327
0.80404997 -0.010231275 0.38673377 0.004194369 -1.2467021 0.026290305 -0.07254919 0.26945123
0.802541 0.36929405 -1.3834416 -0.29297575 0.44281954 0.622657 -0.49152762 0.53394365
-0.028839337 0.028479604 -0.0055334438 -0.12936342 0.7005961 1.2489936 0.8017262 -0.109444246

fc3.bias f4 [2]
00000000: 3b8d 50bf 703e c33f
-0.814655 1.525343
